agent1_checkpoint_critic.pth (torch_old, 185322 bytes, 5 tensors)

fcs1.weight f4 [256, 48]
0.39880788 0.6181083 0.046887215 -0.42109436 0.5822941 0.51964676 0.030737232 -0.39067933
0.39718953 0.5645503 -0.12152363 -1.0884039 0.40216008 0.39807078 -0.015088278 -1.1252537
0.26006556 0.3237582 -0.0067370315 -0.64622015 0.1619012 0.5849973 0.033088144 -0.7358158
0.7692153 -0.39643604 0.020488089 0.06403679 -0.6525204 0.45584098 -0.015895821 0.09791236
1.3256825 -0.20261884 -0.050593995 -0.37674224 -0.45112148 0.42405543 -0.071588784 -0.32103708
1.3922021 -0.2811653 -0.22254288 -0.037739813 -0.20469756 0.5838796 -0.2156381 0.03910274
0.47079772 0.8253343 0.002687289 -0.18354799 -0.6221668 0.7542141 -0.02944958 -0.11102571
0.8068852 0.96193117 -0.016365483 0.2813846 -0.28237876 0.8140209 -0.024257736 0.2993066
1.1819259 1.0965564 0.0003312153 -0.5521814 0.17322262 1.0061324 -0.018316988 -0.63495404
-0.39294317 -0.16841872 0.011235283 0.27006826 0.5409158 0.77763635 -0.035269316 0.25955865
0.35350895 -0.25892836 0.011793059 -0.41508976 0.22233057 0.8557238 0.0510249 -0.45513496
0.4842278 0.05387938 -0.11780981 0.20093098 -0.16707356 1.0691638 -0.13853139 0.22517988
0.28996083 0.27637652 -0.023044726 -0.08213612 0.09484387 -0.334453 -0.03714572 0.012353346
0.33185425 0.2600001 -0.08663958 0.01312484 0.0060952217 -0.21456082 0.012452357 -0.008220025
0.33707154 0.16491897 -0.061998684 -0.13621987 -0.04425251 -0.24002706 0.02829942 -0.022740468
0.3657322 0.29908046 -0.09234493 0.06864869 -0.08988423 -0.3201842 -0.01138293 -0.008943737
0.21162626 0.24873017 0.0031569786 0.16364777 0.018826032 -0.23452993 -0.010723822 0.17200139
0.23774043 0.23780097 -0.0015551234 0.036242604 0.064802766 -0.20322157 0.019303434 0.1009622
0.64612216 0.45743707 -0.15937847 -0.20631841 -0.068729006 -0.6475676 -0.19647938 -0.1826238
0.5770505 0.45032454 0.0010814765 -0.33380753 0.027848057 -2.7348328 0.0602798 -0.446898
0.48028564 0.48197976 -0.23083547 0.43453512 -0.15745814 -1.8098055 -0.29191375 0.47999248
0.057930715 0.24493952 -0.06632008 0.099121876 0.03596594 -0.73863834 -0.030894129 0.14823328
0.1324283 0.1567414 0.10172006 -0.27374917 -0.026265029 -2.700297 -0.0049698716 -0.31617242
0.33796296 0.22689135 -0.05683149 0.19289902 0.18664339 -1.8305768 -0.06967047 0.17538525
0.75527847 0.28707674 0.13561879 -0.85561484 0.7219771 0.6114711 0.06232348 -0.88053495
0.59594846 0.30051932 -0.22231068 -0.19496365 0.449072 0.33401456 -0.20950282 -0.106039874
0.70481944 0.3277573 -0.00070964504 0.7132254 0.07753674 -0.303373 0.043449707 0.7199107
0.9801661 0.44700927 0.051500376 0.03144191 -0.7427291 0.6759838 0.055393405 0.045907896
1.4135103 0.51834744 -0.024951678 -0.09337275 -0.3640698 0.24902086 0.067912966 0.0049406337
1.1102524 0.60503805 -0.10335817 0.64937997 -0.05541583 -0.36991438 -0.043555774 0.59125525
0.27791348 0.610833 -0.100281656 0.18913656 0.006199499 -0.19747657 -0.08747016 0.23956756
0.42705438 0.5372725 -0.0026057789 -0.17172396 0.05021726 -0.25259218 0.012826937 -0.14032541
00000000: 8c30 cc3e 583c 1e3f cf0c 403d ae99 d7be
00000010: 3a11 153f 9207 053f a6cc fb3c 1f07 c8be
00000020: 6d5c cb3e 5e86 103f 62e1 f8bd d250 8bbf
00000030: ede7 cd3e efcf cb3e d334 77bc 5008 90bf
00000040: 5027 853e a3c3 a53e 51c2 dcbb af6e 25bf
00000050: 6ec9 253e 62c2 153f 6f87 073d 6d5e 3cbf
00000060: 4beb 443f aaf9 cabe a3d6 a73c b825 833d
00000070: 940b 27bf fd63 e93e f437 82bc 4786 c83d
00000080: f7af a93f 507b 4fbe a63b 4fbd 5ce4 c0be
00000090: 65f9 e6be cb1d d93e 249d 92bd f95e a4be
000000a0: ae33 b23f e6f4 8fbe 48e2 63be 1095 1abd
000000b0: 3d9c 51be 2279 153f 3cd0 5cbe 322a 203d
000000c0: 660c f13e 1c49 533f 3a1d 303b 01f4 3bbe
000000d0: 5346 1fbf 2d14 413f 3f40 f1bc 7361 e3bd
000000e0: 0790 4e3f 1f41 763f e810 86bc a411 903e
000000f0: f393 90be ac63 503f 29b8 c6bc b73e 993e
00000100: 5949 973f f65b 8c3f f7a6 ad39 c35b 0dbf
00000110: 4561 313e f2c8 803f 820d 96bc 598c 22bf
00000120: d92f c9be f575 2cbe 3114 383c 6346 8a3e
00000130: 7579 0a3f 2d13 473f 8f76 10bd dfe4 843e
00000140: 20ff b43e 4292 84be ad37 413c a586 d4be
00000150: a0aa 633e b710 5b3f 7cff 503d 7307 e9be
00000160: b5ec f73e a0b0 5c3d 4546 f1bd dac0 4d3e
00000170: 5515 2bbe 5cda 883f 2cdb 0dbe 8e95 663e
00000180: bf75 943e 3981 8d3e 4bc8 bcbc fb36 a8bd
00000190: 813d c23d 6c3d abbe 1c26 18bd b065 4a3c
000001a0: cde8 a93e bc1e 853e 1870 b1bd 9209 573c
000001b0: 6dba c73b d5b5 5bbe f904 4c3c 49ad 06bc
000001c0: a494 ac3e 85e0 283e 55f2 7dbd 397d 0bbe
000001d0: 1f42 35bd a7c9 75be 2fd4 e73c 384a babc
000001e0: 4041 bb3e 1321 993e 571f bdbd af97 8c3d
000001f0: 3915 b8bd 2fef a3be 787f 3abc c088 12bc
00000200: 8eb4 583e 1fb3 7e3e 50e5 4e3b 4893 273e
00000210: 0d39 9a3c 9d28 70be f8b2 2fbc 2221 303e
00000220: 3a72 733e 1982 733e 48d5 cbba 2073 143d
00000230: 50b7 843d 5119 50be 3c22 9e3c 45c5 ce3d
00000240: 4368 253f 3135 ea3e 1c34 23be 2245 53be
00000250: cbc1 8cbd fdc6 25bf e431 49be bc01 3bbe
00000260: 95b9 133f f090 e63e 54c0 8d3a d2e8 aabe
00000270: 9c21 e43c 8007 2fc0 f4e7 763d d1cf e4be
00000280: 00e8 f53e 0dc6 f63e 2260 6cbe 637b de3e
00000290: b53c 21be b5a7 e7bf b875 95be 93c1 f53e
000002a0: c248 6d3d 6dd1 7a3e d2d2 87bd 6900 cb3d
000002b0: 0651 133d 6717 3dbf af15 fdbc 77ca 173e
000002c0: 499b 073e d180 203e 9b52 d03d da28 8cbe
000002d0: c229 d7bc abd1 2cc0 4eda a2bb 5ae1 a1be
000002e0: 7b09 ad3e 3556 683e 23c8 68bd 5287 453e
000002f0: 721f 3f3e 5750 eabf 64af 8ebd 3198 333e
00000300: ee59 413f b9fb 923e a7df 0a3e 9309 5bbf
00000310: 7ed3 383f 5f89 1c3f e846 7f3d bd6a 61bf
00000320: 1490 183f abdd 993e 69a5 63be 8da4 47be
00000330: c4ec e53e f503 ab3e e887 56be 6f2b d9bd
00000340: 0c6f 343f cecf a73e 7907 3aba f195 363f
00000350: 95cb 9e3d b553 9bbe 52f8 313d 114c 383f
00000360: 2aec 7a3f 66de e43e 0ff2 523d 3bc9 003d
00000370: 7f23 3ebf 460d 2d3f 32e4 623d eb09 3c3d
00000380: e8ed b43f 6bb2 043f 7667 ccbc 363a bfbd
00000390: 5b67 babe 53ff 7e3e f415 8b3d 0ae5 a13b
000003a0: c01c 8e3f c6e3 1a3f 73ad d3bd c43d 263f
000003b0: b6fb 62bd 6b65 bdbe 8a67 32bd 815c 173f
000003c0: ad4a 8e3e 8d5f 1c3f 7860 cdbd 04ad 413e
000003d0: 2b25 cb3b 4c37 4abe 8e23 b3bd 3351 753e
000003e0: dfa6 da3e b18a 093f b7c5 2abb 68d8 2fbe
000003f0: 9db0 4d3d c353 81be 1328 523c 77b1 0fbe

fcs1.bias f4 [256]
-1.108853 -1.1546352 -0.33708218 -1.045169 -0.9891849 -0.49011135 -1.0525115 -0.32380897
-0.29098436 -1.0515352 -1.433824 -0.79177403 -0.90806764 -0.65794164 -1.1166111 -1.0908755
-1.0235288 -1.6047583 -0.49455762 -0.8794955 -0.12209727 -1.125064 -0.48513028 -0.9083188
-0.20000507 -0.59392226 -0.95987856 0.027156167 0.09746786 -1.5863092 -1.1373156 -0.89011264
-0.7545357 0.11208162 -0.86073714 -0.54517454 -1.2481138 -0.8780074 -1.3141825 -1.1449857
-0.5805351 -0.48507836 -0.923113 -0.4347501 -0.35670993 -0.76705027 -1.388633 -0.5446321
-0.51535976 -0.07137719 -0.5168659 -1.0230131 -1.0781671 -0.8797688 -0.99904746 -0.5751921
-1.1363574 -0.70175385 -0.7262644 -0.5989105 -0.50085634 -1.756946 -0.8922779 -0.3315365
-0.71902937 0.46832818 -0.5056974 -0.88677 -0.38926202 0.27303994 -0.6463513 -0.43192494
-0.6213862 -0.28448987 -0.21826772 -0.4103959 -0.22926183 -0.43844885 -0.91736645 -1.2310817
-0.93004704 -0.61091465 0.02120527 -0.32469562 -0.2690752 -0.117772356 -0.43927446 0.3939503
-0.12567557 -0.36377826 -0.7749125 -0.15236425 -0.8266557 0.39585423 -1.0997334 0.6857216
-0.041175537 -0.40827355 -0.492142 -0.5899638 -0.07775112 -0.2713364 -0.1828533 -0.5918604
-0.51817805 -0.5162859 0.45471862 -1.2956673 -0.7647151 -0.68407106 -1.2881215 -0.7994646
-0.16160564 0.65967816 -0.816929 -0.90556186 -1.307388 -0.9071507 -1.1283714 -0.7453417
-0.8733201 -0.3709765 -0.7339506 -1.6145434 -0.075876296 0.39355776 -0.3083467 -0.30473107
-0.17296496 -0.8848993 -0.7615776 -0.8022878 -1.0037025 -0.9857309 -0.32826585 -0.53583395
-0.9977288 -0.4949724 -1.0415814 -0.5429941 -1.6070497 -1.2827275 -0.06915058 -0.4960938
-0.22312678 -0.3355678 -0.7562251 -0.22854808 -0.44704273 -1.2395556 -0.69062847 -0.35523647
-1.1614671 -0.9621921 -0.8608799 -0.8798131 -0.26908615 -0.3502584 -0.49524957 -0.5056167
-0.26077148 -0.32918248 -1.027544 -0.3637399 -0.91875875 -0.81549084 -1.2349678 -0.8276491
-1.1058341 -0.45791185 -0.76987106 -0.8193503 -1.4862394 -0.9358817 -0.15621714 -0.22957116
-0.07606122 -0.9163083 -0.83530724 -0.58881617 -0.9309645 0.008258667 -0.672439 -0.9776927
-0.362349 -1.4831008 -0.7562552 -1.1341614 0.31617334 0.26310274 -0.2046016 -1.0044781
-0.6491575 -0.7198344 -0.57117826 -0.96843886 -0.46912518 -1.1657023 -0.66909015 -0.5604597
-0.7577205 -0.5821189 -1.0280957 -1.2512115 -0.5294128 -0.15763389 -0.6796845 -0.3960994
-1.0680381 0.09072773 -0.38943788 -0.3275453 -0.8310461 -0.29795057 -0.66039145 -0.10414671
-0.91137326 -0.036719315 -0.6332566 -0.53938836 -1.1899791 -0.7332529 -0.33621594 -0.7729033
-0.23522568 -0.23219442 -0.28305814 -0.68678135 -0.23816752 -0.69822 -0.62591887 -0.40004852
-0.83038336 -1.3624926 -1.2593699 -0.75231504 -0.031446215 0.101972 -0.18463744 -0.24978521
-0.9177392 -0.97156656 -0.88494647 -0.751616 -1.1771305 -0.6774132 -0.85798705 -1.3674945
-0.9482983 0.39850625 -0.58494866 -0.28824645 -0.45447898 0.0886756 -0.9213906 -0.76333034
00000000: e5ee 8dbf 16cb 93bf 0996 acbe 19c8 85bf
00000010: 393b 7dbf e0ef fabe b2b8 86bf 4aca a5be
00000020: e7fb 94be b598 86bf 8b87 b7bf b4b1 4abf
00000030: 1f77 68bf dd6e 28bf 1ded 8ebf cfa1 8bbf
00000040: fe02 83bf b868 cdbf a836 fdbe 9e26 61bf
00000050: 220e fabd 1902 90bf ff62 f8be 9587 68bf
00000060: 21ce 4cbe 4a0b 18bf 9aba 75bf 9c76 de3c
00000070: 3b9d c73d 2e0c cbbf 8f93 91bf 6cde 63bf
00000080: 4029 41bf 0c8b e53d 4559 5cbf 8f90 0bbf
00000090: 31c2 9fbf 18c5 60bf 2237 a8bf e48e 92bf
000000a0: f39d 14bf 315c f8be 2251 6cbf 9197 debe
000000b0: afa2 b6be 685d 44bf babe b1bf 026d 0bbf
000000c0: 9eee 03bf 342e 92bd 5351 04bf 18f2 82bf
000000d0: 6101 8abf 8738 61bf 93c1 7fbf ca3f 13bf
000000e0: 2974 91bf 24a6 33bf 77ec 39bf 3352 19bf
000000f0: 1f38 00bf 9be3 e0bf 536c 64bf 27bf a9be
00000100: 4f12 38bf b6c8 ef3e 6375 01bf 5c03 63bf
00000110: 5a4d c7be e4cb 8b3e 4777 25bf 4425 ddbe
00000120: 2a13 1fbf a8a8 91be 9381 5fbe 691f d2be
00000130: 9dc3 6abe 5e7c e0be 87d8 6abf 1694 9dbf
00000140: 9017 6ebf e764 1cbf adb6 ad3c 813e a6be
00000150: 3ac4 89be a232 f1bd 95e8 e0be dbb3 c93e
00000160: 19b1 00be 2541 babe aa60 46bf 6005 1cbe
00000170: b59f 53bf 68ad ca3e 10c4 8cbf 738b 2f3f
00000180: aea7 28bd 3b09 d1be 09fa fbbe de07 17bf
00000190: fb3b 9fbd 9bec 8abe e53d 3bbe 2a84 17bf
000001a0: 51a7 04bf 502b 04bf e1d0 e83e 6dd8 a5bf
000001b0: 5ec4 43bf 481f 2fbf 2ae1 a4bf b6a9 4cbf
000001c0: f37b 25be abe0 283f 4222 51bf e7d2 67bf
000001d0: 7d58 a7bf 073b 68bf 796e 90bf b7ce 3ebf
000001e0: e891 5fbf a2f0 bdbe 30e4 3bbf 5ca9 cebf
000001f0: 0865 9bbd 6780 c93e 9edf 9dbe b605 9cbe
00000200: ba1d 31be c388 62bf c0f6 42bf bc62 4dbf
00000210: 5379 80bf dc58 7cbf 7612 a8be 6a2c 09bf
00000220: 286b 7fbf 066d fdbe 8a52 85bf a901 0bbf
00000230: ceb3 cdbf 6a30 a4bf d29e 8dbd 0200 febe
00000240: 597b 64be 8bcf abbe f897 41bf 8208 6abe
00000250: c9e2 e4be c2a9 9ebf 07cd 30bf 8ee1 b5be
00000260: f4aa 94bf 3952 76bf a062 5cbf 6e3b 61bf
00000270: a9c5 89be 1255 b3be 5a91 fdbe 1970 01bf
00000280: d783 85be 9b8a a8be 9086 83bf 1e3c babe
00000290: c633 6bbf 02c4 50bf 6d13 9ebf d0e0 53bf
000002a0: f98b 8dbf 6c73 eabe 4516 45bf f1c0 51bf
000002b0: 183d bebf f195 6fbf 63f7 1fbe b414 6bbe
000002c0: fcc5 9bbd 2e93 6abf b2d6 55bf a8bc 16bf
000002d0: b153 6ebf 5c4f 073c f624 2cbf 124a 7abf
000002e0: cf85 b9be 3fd6 bdbf f199 41bf 332c 91bf
000002f0: 79e1 a13e 67b5 863e 1583 51be bd92 80bf
00000300: 302f 26bf 1147 38bf bd38 12bf 9ceb 77bf
00000310: 2d31 f0be bc35 95bf 7e49 2bbf 497a 0fbf
00000320: f8f9 41bf bf05 15bf a498 83bf b327 a0bf
00000330: 9987 07bf c76a 21be ceff 2dbf 8acd cabe
00000340: 79b5 88bf 76cf b93d 6764 c7be 04b4 a7be
00000350: 70bf 54bf fa8c 98be 6a0f 29bf df4a d5bd
00000360: c24f 69bf fe66 16bd 1b1d 22bf 5b15 0abf
00000370: 3c51 98bf 76b6 3bbf 7f24 acbe fedc 45bf
00000380: 00df 70be 60c4 6dbe ffec 90be e7d0 2fbf
00000390: 30e2 73be 8cbe 32bf 383c 20bf 29d3 ccbe
000003a0: 0194 54bf 2866 aebf 0833 a1bf b897 40bf
000003b0: bfcd 00bd b2d6 d03d 9911 3dbe b2c7 7fbe
000003c0: f5f0 6abf 96b8 78bf da8b 62bf e869 40bf
000003d0: 36ac 96bf f46a 2dbf 0aa5 5bbf 0f0a afbf
000003e0: adc3 72bf 0309 cc3e 32bf 15bf 0a95 93be
000003f0: 78b1 e8be 8e9b b53d 41e0 6bbf 9e69 43bf

fc2.weight f4 [128, 260]
-0.044083823 0.002795506 0.006166552 -0.07441234 -0.033812456 -0.043876573 -0.05385868 -0.11099293
-0.062116474 -0.11299332 -0.050430723 -0.0020008201 -0.038536385 0.017669354 -0.07839428 0.056240913
0.018617598 0.032074895 -0.13605489 0.012681226 0.008053431 -0.027664434 -0.02229123 -0.015403764
-0.05088049 -0.13809541 -0.09350096 -0.019032622 -0.12076205 -0.09791083 0.049088288 -0.06544418
0.019760301 -0.06987555 0.022310253 -0.10965061 -0.014129713 0.015107967 0.058181636 0.016798463
-0.1334178 -0.054129727 -0.09311131 -0.14200683 -0.068565115 -0.0015395338 0.03497898 0.055860426
-0.05877091 -0.043975357 0.061086453 0.04295024 0.020302963 -0.0817625 0.0050760102 -0.041987758
-0.11101784 -0.020069022 0.03825644 0.04674984 -0.012637858 -0.034969147 -0.07019172 0.026746472
0.041189652 -0.10438692 0.03224134 -0.104747266 -0.08550678 -0.09592522 -0.06178328 -0.044623744
0.013335637 -0.018606229 -0.12991954 -0.018468004 -0.02737764 -0.01880058 -0.009040707 0.047263555
0.03718621 -0.076031 -0.027293516 -0.049577046 -0.08719689 -0.0764188 0.042815436 -0.09843365
-0.015869118 0.048134048 0.017299637 -0.03900381 -0.049141858 -0.038820677 -0.046577238 0.044107813
-0.05024323 -0.04598582 0.0069358754 -0.08077593 -0.095677435 0.008906005 -0.014770805 -0.071695514
-0.012172447 -0.1372335 -0.11018212 -0.07509473 -0.03299407 -0.08431813 -0.100092806 -0.059455093
-0.0034454374 -0.13489634 -0.061458543 -0.05211881 0.04912166 0.027040252 0.0007244296 -0.12558842
-0.0030617036 -0.038334917 0.016221844 -0.0901085 -0.097350724 -0.009301895 0.08078087 -0.025010198
0.0350124 -0.12603131 0.018589107 -0.10618534 0.06538952 0.0020912034 0.0433437 -0.047538966
-0.10259468 -0.045801163 0.025673151 -0.012205985 0.014560165 -0.04560524 -0.012350784 -0.07810127
-0.036949154 0.033335365 -0.0335236 -0.06272902 0.049212966 -0.010417681 0.06166191 -0.060896922
-0.09114699 0.021581909 0.009667713 -0.11519919 0.028545756 -0.018911965 -0.07124749 -0.020969871
0.0059185033 -0.05167284 -0.066294156 -0.057568528 0.004127728 0.014604624 -0.07982799 0.070875645
0.06936988 0.081562884 -0.068619415 0.018734261 -0.0902956 0.02358484 0.03746818 0.034654994
-0.07039917 -0.03520888 -0.027138796 -0.05914915 -0.036640838 -0.01903447 -0.099526525 -0.0032377178
-0.021936946 -0.102053456 -0.05800066 -0.0737188 -0.100333676 0.05709181 -0.08369238 -0.07585442
0.024823591 0.006938854 -0.0742756 -0.03202662 -0.087652884 0.04020928 -0.005930009 -0.10044207
-0.122053 -0.024194142 -0.083201766 0.008311592 -0.00210711 -0.012813748 -0.058279213 0.0006092107
-0.00017010703 0.06572704 -0.015089117 -0.02429029 0.044827484 -0.048610356 -0.07457292 -0.11610531
-0.09936143 -0.097274505 -0.04317847 -0.045156926 -0.06444775 -0.018614909 -0.025667751 -0.07198096
-0.055283435 -0.05995515 -0.060010955 -0.078401074 -0.07505238 -0.041434754 -0.07496661 -0.0724415
0.064344004 -0.06287256 0.014284573 0.030438203 -0.115560524 -0.072318055 0.0062979977 0.0011782883
-0.011948823 -0.056497525 -0.07256833 0.00013474058 0.0748807 -0.023078056 -0.037617486 -0.10003079
-0.04484701 -0.07357105 -0.0010776737 -0.107563525 0.028153723 0.030251132 0.034774933 -0.07127049
00000000: 3d91 34bd cf34 373b ca10 ca3b 7f65 98bd
00000010: ee7e 0abd ecb7 33bd eb9a 5cbd 4350 e3bd
00000020: d86d 7ebd 0b69 e7bd 7290 4ebd 3120 03bb
00000030: 54d8 1dbd 52bf 903c 2e8d a0bd df5c 663d
00000040: ef83 983c f760 033d f951 0bbe ebc4 4f3c
00000050: 8af2 033c 86a0 e2bc 199c b6bc 1260 7cbc
00000060: 1068 50bd e268 0dbe 6e7d bfbd 4dea 9bbc
00000070: 1852 f7bd 7985 c8bd cd10 493d 9907 86bd
00000080: 5be0 a13c ea1a 8fbd fec3 b63c 8090 e0bd
00000090: 5080 67bc 6887 773c de4f 6e3d ee9c 893c
000000a0: ad9e 08be 22b7 5dbd 24b1 bebd 3d6a 11be
000000b0: de6b 8cbd 2fca c9ba 1e46 0f3d e7cd 643d
000000c0: c4b9 70bd 811f 34bd ca35 7a3d 97ec 2f3d
000000d0: 6652 a63c 1973 a7bd a954 a63b 5bfb 2bbd
000000e0: 525d e3bd ca67 a4bc c9b2 1c3d c37c 3f3d
000000f0: 050f 4fbc cf3b 0fbd adc0 8fbd 6b1b db3c
00000100: 7bb6 283d cfc8 d5bd 7f0f 043d bc85 d6bd
00000110: 2e1e afbd 7174 c4bd 7710 7dbd 63c7 36bd
00000120: b77d 5a3c 176c 98bc a109 05be 364a 97bc
00000130: 1347 e0bc ad03 9abc 791f 14bc 6e97 413d
00000140: 9150 183d 24b6 9bbd a796 dfbc 4d11 4bbd
00000150: 4894 b2bd 7681 9cbd 3d5f 2f3d 9597 c9bd
00000160: f4ff 81bc 3528 453d f8b7 8d3c 76c2 1fbd
00000170: f948 49bd 6e02 1fbd c6c7 3ebd 65aa 343d
00000180: d8cb 4dbd a15b 3cbd 5746 e33b da6d a5bd
00000190: 88f2 c3bd 7eea 113c 3f01 72bc 19d5 92bd
000001a0: f16e 47bc f086 0cbe 2aa7 e1bd 44cb 99bd
000001b0: ca24 07bd fcae acbd 75fd ccbd 2f87 73bd
000001c0: d9cc 61bb 4422 0abe f4bb 7bbd 897a 55bd
000001d0: cb33 493d 8583 dd3c a6e7 3d3a 409a 00be
000001e0: dda6 48bb 1305 1dbd ace3 843c ce8a b8bd
000001f0: d15f c7bd fa66 18bc 7170 a53d 30e2 ccbc
00000200: 2a69 0f3d 5a0e 01be 2f48 983c b377 d9bd
00000210: f1ea 853d 920c 093b 2a89 313d 38b8 42bd
00000220: 291d d2bd 009a 3bbd 8050 d23c 9dfb 47bc
00000230: c28d 6e3c 8fcc 3abd f15a 4abc 8ff3 9fbd
00000240: ff57 17bd aa8a 083d 0b50 09bd 1378 80bd
00000250: 8993 493d ecae 2abc 3391 7c3d 0d6f 79bd
00000260: 46ab babd 8bcc b03c 5465 1e3c 8eed ebbd
00000270: cad8 e93c 44ed 9abc 34ea 91bd 02c9 abbc
00000280: 01f0 c13b e6a6 53bd 3bc5 87bd facc 6bbd
00000290: e441 873b 3c48 6f3c db7c a3bd 4027 913d
000002a0: cc11 8e3d 710a a73d 5688 8cbd 9878 993c
000002b0: e6ec b8bd ff34 c13c 3c78 193d 65f2 0d3d
000002c0: 712d 90bd 3037 10bd 2e52 debc 6146 72bd
000002d0: b414 16bd 2dee 9bbc 90d4 cbbd e42f 54bb
000002e0: 1cb5 b3bc 6701 d1bd 1a92 6dbd e2f9 96bd
000002f0: be7b cdbd 1ad9 693d e966 abbd 9059 9bbd
00000300: d85a cb3c 545f e33b ce1d 98bd 582e 03bd
00000310: 5b83 b3bd 7cb2 243d 8550 c2bb 92b4 cdbd
00000320: ecf6 f9bd cb32 c6bc b065 aabd 582d 083c
00000330: 7117 0abb c1f0 51bc 2fb6 6ebd 70b3 1f3a
00000340: c25e 32b9 e69b 863d 5838 77bc 6efc c6bc
00000350: 069d 373d a71b 47bd b0b9 98bd 9fc8 edbd
00000360: 017e cbbd db37 c7bd e8db 30bd 78f6 38bd
00000370: 2ffd 83bd 4b7e 98bc 2d45 d2bc c16a 93bd
00000380: e270 62bd 8893 75bd 0cce 75bd be90 a0bd
00000390: 10b5 99bd 7db7 29bd 1888 99bd 365c 94bd
000003a0: cac6 833d 54c3 80bd d709 6a3c 8a59 f93c
000003b0: ffaa ecbd 7d1b 94bd 6f5f ce3b cb70 9a3a
000003c0: ffc4 43bc f369 67bd b49e 94bd 2649 0d39
000003d0: 0d5b 993d 310e bdbc cb14 1abd f1dc ccbd
000003e0: 80b1 37bd 6bac 96bd bb40 8dba 444a dcbd
000003f0: a3a2 e63c 39d1 f73c 2970 0e3d 43f6 91bd

fc2.bias f4 [128]
-0.059634767 -0.15707612 -0.12588756 -0.08153556 -0.15977784 -0.13101883 -0.09385183 -0.06272528
-0.02501972 -0.23206714 -0.23405227 -0.03408986 -0.14223388 -0.10376358 -0.13952565 -0.0872721
-0.12404099 0.12696682 -0.100243434 -0.13122256 -0.19689871 -0.09668571 -0.15621126 -0.05362509
-0.15282166 -0.15219326 -0.14931205 -0.17461675 0.13958502 -0.13289149 -0.24047697 -0.09167016
-0.12799196 -0.027262911 -0.8468239 -0.13852057 -1.0441116 -0.11556043 -0.08639927 -0.16799262
-0.15930204 -0.14893724 -0.07946298 -0.16388777 -0.14713429 -0.1572354 -0.16698132 -0.14931789
-0.087922044 -0.12803635 -0.055257216 -0.0950912 -0.09075562 -0.090682544 -0.007661199 -0.13012698
-0.02114316 -0.054603547 -0.12499862 -0.10728648 -0.114706285 -0.1218204 -0.11723599 -0.065364964
-0.13838351 0.016246464 -0.19536732 -0.16852723 -0.19249253 -0.09531609 -0.15206152 -0.13348262
-0.10349061 0.114215225 -0.11903616 -0.12112758 -0.081361756 -0.15350904 0.49814263 -0.07395241
-0.16139773 -0.058760505 -0.13746049 -0.06362862 -0.03579401 -0.09399137 -0.007555371 -0.08459048
-1.3963848 -0.18887359 -0.060776144 0.79714394 -0.17736295 -0.20193183 -0.15354444 0.031847145
-0.14446563 -0.09345995 -0.12657273 -0.1077746 -0.17033294 -0.057658095 -0.17890806 -0.14175496
-0.16572599 -0.10803849 -0.12517719 -0.12713636 -0.19419563 -0.20425135 -0.08302078 -0.1139446
-0.13503446 -0.34503016 0.40427458 0.45803893 -0.040207803 -0.24346215 -0.1219925 -0.08066522
-0.07239301 -0.22184622 -0.060982052 0.36675274 -0.0900802 0.24230619 -0.14054681 -0.13571207
00000000: 9643 74bd 90d8 20be abe8 00be 1efc a6bd
00000010: cd9c 23be cd29 06be 6335 c0bd 1d76 80bd
00000020: 28f6 ccbc 02a3 6dbe 66ab 6fbe cfa1 0bbd
00000030: c2a5 11be 0082 d4bd d0df 0ebe b7bb b2bd
00000040: 3409 febd 9703 023e 6e4c cdbd 355f 06be
00000050: d19f 49be 2803 c6bd d8f5 1fbe fba5 5bbd
00000060: 487d 1cbe 8dd8 1bbe 42e5 18be bcce 32be
00000070: 60ef 0e3e b514 08be 983f 76be 91bd bbbd
00000080: 5310 03be 7856 dfbc 73c9 58bf 56d8 0dbe
00000090: 73a5 85bf f2aa ecbd 1af2 b0bd 4206 2cbe
000000a0: 1320 23be 0183 18be 7dbd a2bd 32d2 27be
000000b0: 5faa 16be 5102 21be 27fd 2abe cae6 18be
000000c0: 7910 b4bd f61b 03be 6455 62bd 2dbf c2bd
000000d0: 15de b9bd c5b7 b9bd cc0a fbbb 0240 05be
000000e0: 6c34 adbc f8a7 5fbd 47ff ffbd 04b9 dbbd
000000f0: 21eb eabd f97c f9bd 6c19 f0bd 11de 85bd
00000100: 68b4 0dbe 4e17 853c 5f0e 48be 6792 2cbe
00000110: c31c 45be 1535 c3bd 04b6 1bbe abaf 08be
00000120: e3f2 d3bd ace9 e93d 3bc9 f3bd bd11 f8bd
00000130: fea0 a6bd 7931 1dbe 8d0c ff3e 5c74 97bd
00000140: 7245 25be dbae 70bd 71c2 0cbe b94f 82bd
00000150: bd9c 12bd 8c7e c0bd 0c93 f7bb c63d adbd
00000160: bdbc b2bf 1468 41be 68f0 78bd a011 4c3f
00000170: a29e 35be 38c7 4ebe c13a 1dbe 2772 023d
00000180: ccee 13be ee67 bfbd 489c 01be eeb8 dcbd
00000190: c26b 2ebe e52a 6cbd ad33 37be 3628 11be
000001a0: 13b4 29be 4943 ddbd 732e 00be 0930 02be
000001b0: 38db 46be 4427 51be cc06 aabd c95b e9bd
000001c0: 7946 0abe cba7 b0be 14fd ce3e 1484 ea3e
000001d0: f0b0 24bd 244e 79be 34d7 f9bd cf33 a5bd
000001e0: c942 94bd a82b 63be 51c8 79bd 04c7 bb3e
000001f0: f87b b8bd 1d1f 783e 81eb 0fbe 1bf8 0abe

fc3.weight f4 [1, 128]
-0.02640265 -0.0087738065 0.016379269 -0.016792124 -0.017578311 -0.013946357 0.026318012 0.01890731
-0.015230308 0.021085909 -0.028072277 0.015416268 0.0107408315 0.029277638 -0.031417143 0.0025500287
0.009775382 -0.0037669104 -0.030860087 -0.007633488 0.010951042 0.026928985 -0.024808701 0.000102287646
-0.015436594 0.018148102 -0.023732098 -0.020027071 -0.033140603 0.010156052 -0.015504867 0.003683578
0.03067641 0.0075352485 -0.040348887 -0.0010766565 -0.03833226 0.010623507 -0.015855767 -0.011874639
0.03163882 -0.009366805 -0.022720933 -0.006729386 -0.0048428737 0.0049780677 -0.026908576 -0.009701394
-0.0027424041 -0.022654096 0.019295555 0.011095244 0.0135670975 -0.00031964344 0.004650961 0.015402227
0.007932811 -0.015397835 0.010270976 -0.0037474576 -0.008167944 0.009121506 -0.018160278 -0.025151014
0.017476847 -0.03275187 0.018769445 -0.0037962885 0.009679625 -0.019025909 -0.0051541114 -0.022181679
-0.0029398056 0.009601734 0.015519982 -0.0016614851 -0.030104326 0.011791172 -0.020313244 0.01111697
0.0069766105 -0.0026920526 0.0036531242 -0.024811437 0.0071286038 -0.017423768 0.014988969 0.007991574
-0.023814987 0.007500927 0.0020560406 0.0123394085 0.026096001 0.0003912078 -0.013209939 -0.011837687
-0.023031464 0.02306415 -0.014896492 -0.008272556 -0.018439764 -0.019563079 0.014687139 0.0077080023
0.024487222 -0.006183912 0.015824994 -0.023004407 0.030038675 -0.02758773 0.027129227 0.014427166
0.018024873 0.019702531 0.021142893 -0.01392411 -0.021415887 0.010203378 -0.009656711 -0.018021444
0.020733908 0.026879255 -0.0027979852 -0.0131364595 0.0018598274 0.020219112 -0.01031891 0.027476558
00000000: 5f4a d8bc 03c0 0fbc d12d 863c a38f 89bc
00000010: 6400 90bc 437f 64bc df98 d73c 81e3 9a3c
00000020: 8b88 79bc 5bbc ac3c d5f7 e5bc 8494 7c3c
00000030: 50fa 2f3c a8d7 ef3c 43af 00bd 621e 273b
00000040: ec28 203c 45de 76bb 4bce fcbc 5722 fabb
00000050: 006c 333c 2d9a dc3c 9e3b cbbc 4383 d638
00000060: c5e9 7cbc 54ab 943c d169 c2bc d00f a4bc
00000070: 71be 07bd 9265 263c 2008 7ebc 2f68 713b
00000080: 184d fb3c 3fea f63b e044 25bd 991e 8dba
00000090: 4a02 1dbd 380e 2e3c f4e3 81bc d98d 42bc
000000a0: b597 013d 3a77 19bc 4021 babc 2e82 dcbb
000000b0: f8b0 9ebb 0f1f a33b 606f dcbc 98f2 1ebc
000000c0: e8b9 33bb 1595 b9bc b611 9e3c d4c8 353c
000000d0: 8848 5e3c d195 a7b9 1767 983b 9f59 7c3c
000000e0: 9ff8 013c 3347 7cbc 9947 283c e897 75bb
000000f0: d7d2 05bc 5e72 153c ddc4 94bc 8009 cebc
00000100: 9b2b 8f3c d326 06bd 61c2 993c 27cb 78bb
00000110: 4a97 1e3c 39dc 9bbc d2e3 a8bb 5ab6 b5bc
00000120: c1a9 40bb 9750 1d3c 8647 7e3c 30c6 d9ba
00000130: 599d f6bc c32f 413c f667 a6bc f423 363c
00000140: 0d9c e43b 266d 30bb 4169 6f3b 5b41 cbbc
00000150: 1097 e93b 4abc 8ebc 4b94 753c 17ef 023c
00000160: a617 c3bc 56ca f53b a3be 063b 3b2b 4a3c
00000170: 48c7 d53c 061b cd39 806e 58bc dcf2 41bc
00000180: 7bac bcbc 07f1 bc3c 6a10 74bc 9d89 07bc
00000190: fd0e 97bc c042 a0bc 53a2 703c 6993 fc3b
000001a0: 6d99 c83c 6aa2 cabb 6ba3 813c bd73 bcbc
000001b0: ab13 f63c aaff e1bc 1d3e de3c ec5f 6c3c
000001c0: e6a8 933c 3467 a13c dc33 ad3c f321 64bc
000001d0: 5f70 afbc 122c 273c 2e37 1ebc b5a1 93bc
000001e0: 28da a93c e231 dc3c 675e 37bb 4e3a 57bc
000001f0: 74c5 f33a 8da2 a53c a510 29bc 8516 e13c
