agent2_checkpoint_actor.pth (torch_old, 159210 bytes, 6 tensors)

fc1.weight f4 [256, 24]
0	0x3c75151e	0.014958648
1	0xbe2c6ea9	-0.16839088
2	0x3d749872	0.059715696
3	0x3cd486e9	0.025943236
4	0xbe0aed72	-0.1356714
5	0x3bc7435d	0.0060810284
6	0x3d839af1	0.06426037
7	0x3dd2d8b6	0.102952406
8	0xbcd6dde3	-0.02622885
9	0xbdf1baa6	-0.118031785
10	0xbd2faf55	-0.04289182
11	0x3dc16624	0.0944331
12	0xbd0d6226	-0.03451743
13	0xbe16df47	-0.14733611
14	0x3c9cfd97	0.01916389
15	0x3e172cb7	0.14763151
16	0xbdca1332	-0.098669425
17	0xbe4a1203	-0.19733433
18	0xbd476615	-0.048681337
19	0x3e26b2c7	0.16279136
20	0x3bed5bbe	0.0072436025
21	0xbe3a6de1	-0.18205978
22	0x3c88fe4b	0.016722819
23	0x3df0e50f	0.117624395
24	0x3ce0ea67	0.027455522
25	0x3dc9e3ac	0.09857878
26	0xbd165edc	-0.03671156
27	0xbdd47774	-0.103743464
28	0x3d49736a	0.049182333
29	0xbe146c0f	-0.14494346
30	0xbce6f77e	-0.028194185
31	0xbe493732	-0.19649962
32	0x3b56657a	0.0032714293
33	0x3cfe305b	0.031028917
34	0x3cace41b	0.021104863
35	0xbe7a7ae4	-0.24460942
36	0x3deba0dc	0.11505291
37	0xbd5db136	-0.05412408
38	0xbcd79318	-0.026315257
39	0xbe702d89	-0.2345487
40	0x3d2dcd4b	0.04243211
41	0xbcc5a904	-0.024128444
42	0xbc80c8c2	-0.015720729
43	0xbe580c4b	-0.2109844
44	0x3e82de13	0.25560054
45	0x3e1db242	0.15400031
46	0x3cf19bcd	0.029493237
47	0xbe7f4864	-0.24929959
48	0xbddb1617	-0.10697573
49	0x3d633ee0	0.055479884
50	0x3ac60e6e	0.0015110502
51	0x3d200943	0.039071333
52	0xbda3572f	-0.07975613
53	0x3e317a29	0.17331757
54	0xbda66865	-0.081253804
55	0xbc73e82c	-0.014886897
56	0xbcb6f145	-0.022331843
57	0x3d5b6e56	0.05357202
58	0xbdde2353	-0.10846581
59	0xbd616f32	-0.055037685
60	0xbd5a0248	-0.05322483
61	0xbddf5d97	-0.10906523
62	0xbdb6d993	-0.08928218
63	0xbd102fdc	-0.035201892
64	0xbca20662	-0.019778434
65	0x3cd3bd5e	0.025847133
66	0xbd62bc1c	-0.055355176
67	0xbdb20198	-0.0869171
68	0xbd1127c5	-0.035438318
69	0xbeda82f2	-0.42678028
70	0xbc130db7	-0.008975438
71	0xbc413a6b	-0.011793713
72	0x3ca6ca81	0.020360233
73	0x3de96371	0.1139592
74	0x3d0ccd65	0.034375567
75	0x3e3366ff	0.17519759
76	0xbd609682	-0.054831035
77	0x3d78e52d	0.060765434
78	0x3d6e5f58	0.058196396
79	0x3e2c466e	0.16823742
80	0x3b179042	0.0023126756
81	0x3dd89330	0.10574949
82	0xbc6b9769	-0.014379361
83	0x3e068a48	0.13138688
84	0x3d7de599	0.06198654
85	0x3da0613f	0.07831048
86	0x3cc52c32	0.024068926
87	0x3e501c8f	0.20323394
88	0x3d9730a3	0.073823236
89	0x3dfeefd0	0.12448084
90	0xbcfe529a	-0.031045247
91	0xbbc1293c	-0.005894808
92	0x3dc568a5	0.096391
93	0x3d31ea95	0.043436605
94	0x3d8603b7	0.06543677
95	0x3cc1d715	0.02366213
96	0xbce71a5e	-0.028210815
97	0xbda5906d	-0.08084188
98	0x3d73c205	0.059511203
99	0xbbb02f0c	-0.005376702
100	0x3e154ed2	0.14580849
101	0x3c4166c8	0.01180429
102	0xbd3d5e2e	-0.046232395
103	0xbd9ef35d	-0.077612616
104	0xbc3a580f	-0.011373534
105	0xbd3f0ef4	-0.04664512
106	0x3ac406de	0.001495566
107	0xbc38c333	-0.011277008
108	0x3d6a1fa0	0.057159066
109	0x3dced882	0.10099889
110	0x3cc05891	0.023479732
111	0x3d65838e	0.056033663
112	0x3d9936c4	0.07481149
113	0xbca0941c	-0.019601874
114	0xbcae2193	-0.021256244
115	0x3d4482f9	0.047976468
116	0xbe5cc8c1	-0.21560957
117	0x3df8dcde	0.12151502
118	0x3c8e704b	0.01738753
119	0x3dee0a9d	0.11623118
120	0x3ce70745	0.028201709
121	0x3e0c13df	0.13679455
122	0xbd484dd9	-0.048902366
123	0xbee66582	-0.4499932
124	0x3cd50227	0.026002003
125	0xbe6f6f21	-0.23382236
126	0x3cf01da3	0.029311007
127	0xbedd1048	-0.43176484
128	0x3ca00923	0.019535607
129	0x3de217d5	0.11039702
130	0x3b21d198	0.0024691578
131	0xbea18e20	-0.31553745
132	0x3aa3419b	0.0012455465
133	0xbe80f369	-0.25185707
134	0x3d8f7d4b	0.070063196
135	0xbe944175	-0.2895619
136	0x3d868699	0.06568641
137	0xbd1be4a5	-0.03805985
138	0x3cddcfa9	0.02707656
139	0xbdfebeb1	-0.12438715
140	0x3dd17fe9	0.10229475
141	0xbf039d82	-0.5141221
142	0x3d10aa0c	0.03531842
143	0xbe1a327c	-0.15058321
144	0xbd65dcef	-0.0561189
145	0x3e13cf5d	0.14434572
146	0xbb3cdc12	-0.0028817696
147	0xbd185f65	-0.03720035
148	0xbde40010	-0.111328244
149	0x3c519e18	0.01279404
150	0x3cc93ded	0.024565661
151	0x3d565f3f	0.052336928
152	0x3cf4169e	0.029795941
153	0x3dad36d3	0.084577225
154	0x3cf0da33	0.02940092
155	0xbd930f75	-0.071806826
156	0xbdb655df	-0.08903097
157	0x3c82a737	0.015948875
158	0x3c05a03a	0.008155877
159	0xbd823162	-0.06357075
160	0xbc8f9a9d	-0.01752978
161	0x3d924593	0.071421765
162	0x3ceaefab	0.028678736
163	0xbd0da5a4	-0.034581795
164	0x3d4b843c	0.049686655
165	0xbda9b582	-0.08286573
166	0x3cda1dd9	0.02662556
167	0xbb7a1d15	-0.0038164307
168	0x3d805c69	0.06267626
169	0x3d15e52f	0.03659552
170	0xbdbcfb1d	-0.092275836
171	0x3d807f18	0.06274241
172	0xbdc56b30	-0.09639585
173	0xbe9faa1d	-0.31184474
174	0xbd83d223	-0.06436565
175	0x3c8ab3ab	0.016931375
176	0x3d7acda8	0.061231285
177	0x3dc8f9c7	0.09813266
178	0xbdeccc8d	-0.115624525
179	0x3dcaff53	0.099119805
180	0xbe15f8fc	-0.14645761
181	0xbe8cad2c	-0.2747587
182	0xbdd154de	-0.10221265
183	0x3dda5f29	0.106626816
184	0x3d90303a	0.070404485
185	0x3da2368a	0.07920559
186	0xbe1c9676	-0.15291771
187	0x3e434fd5	0.19073422
188	0xbdf56824	-0.11982754
189	0xbc8bb644	-0.017054684
190	0xbd9c686a	-0.07637103
191	0x3e2f5b2a	0.1712462
192	0xbddef52c	-0.108866066
193	0x3d80a63f	0.06281709
194	0x3b34b681	0.00275746
195	0xbdae95c7	-0.085246615
196	0x3e31d593	0.17366628
197	0xbe0b80d7	-0.13623367
198	0x3baac6cc	0.0052116867
199	0xbde287e3	-0.110610746
200	0xbca76bf4	-0.020437218
201	0x3d069ca2	0.03286422
202	0xbc530286	-0.01287902
203	0xbdec29b5	-0.115313925
204	0x39ee4cc2	0.00045452086
205	0x3cdb34c6	0.026758563
206	0x3bf05931	0.007334851
207	0xbdb97d50	-0.090571046
208	0x3d42cc79	0.04755828
209	0x3b95cacb	0.004571294
210	0x3d204057	0.03912386
211	0xbb15402b	-0.0022773843
212	0xbe6b090a	-0.22952667
213	0x3d825fbc	0.06365916
214	0xbd1deed0	-0.038557827
215	0xbd8c637a	-0.06854911
216	0x3d24cce5	0.040234465
217	0x3da52b24	0.08064869
218	0xbd3060de	-0.04306113
219	0x3ce7d3c2	0.028299216
220	0xbd76177c	-0.06008099
221	0x3d4beba8	0.049785286
222	0xbd51dd07	-0.05123618
223	0x3d3bf5f6	0.045888864
224	0xbd1ae79a	-0.03781853
225	0x3d59065d	0.052984584
226	0x3d73fe18	0.059568495
227	0xbb2e67ab	-0.0026612084
228	0xbdb0fca4	-0.086419374
229	0x3e65d6d4	0.22445232
230	0x3c6a40d7	0.014297686
231	0xbd956bf7	-0.07295983
232	0x3d6c8b2a	0.057749905
233	0x3d0ab8bd	0.033867586
234	0xbd10c6e2	-0.03534592
235	0xbc52c29f	-0.012863784
236	0xbdc16883	-0.09443762
237	0x3e7f107d	0.24908634
238	0x3d7c57cf	0.06160718
239	0xbd1fb012	-0.038986273
240	0x3cd30be9	0.025762515
241	0x3d96e6a5	0.07368211
242	0xbd06b283	-0.032885086
243	0x3e52ab89	0.20573248
244	0x3d90f156	0.07077281
245	0xbe671b43	-0.22568993
246	0xbd9a234d	-0.07526264
247	0x3e85e430	0.26150656
248	0x3d8c3727	0.06846457
249	0x3dbf9edd	0.09356473
250	0x3bc1e977	0.0059177238
251	0x3e8c2e41	0.2737904
252	0x3ddd9fdc	0.108215064
253	0xbe5e5e37	-0.21715628
254	0xbd112f44	-0.035445467
255	0x3e972e99	0.2952774

fc1.bias f4 [256]
0	0x3d5670d9	0.052353714
1	0x3dc96836	0.0983433
2	0x3e259707	0.16170894
3	0x3cc87570	0.024470061
4	0xbcfe34f2	-0.031031106
5	0xbe362b61	-0.17789985
6	0xbe806ae4	-0.2508155
7	0xbd218445	-0.039432783
8	0xbe29fff3	-0.16601543
9	0xbe4148fc	-0.18875498
10	0x3dc7cac8	0.09755474
11	0xbc7b7e5c	-0.015349951
12	0x3dae9e23	0.08526256
13	0xbe19d2d3	-0.1502183
14	0x3c507f9a	0.012725735
15	0x3e8c481c	0.27398765
16	0xbd85622c	-0.065128654
17	0xbd87822f	-0.066166274
18	0xbe1697e8	-0.14706385
19	0xbe583cb9	-0.21116914
20	0x3e01e2e5	0.1268421
21	0xbe561165	-0.20905073
22	0x3c30beaf	0.01078765
23	0xbdd8b993	-0.105822705
24	0xbd044b98	-0.032298654
25	0xbe22c2ff	-0.15894698
26	0x3d7f6eb2	0.062361427
27	0x3c4445f6	0.011979571
28	0xbe00039b	-0.12501375
29	0xbda4ed42	-0.08053066
30	0xbdfebc06	-0.124382064
31	0xbe01d561	-0.12679054
32	0xbcfddce9	-0.030989127
33	0x3d82b59a	0.06382294
34	0xbe03c0ed	-0.12866564
35	0x3d8e11e9	0.0693701
36	0xbe31e39d	-0.17371984
37	0x3e24cfa6	0.16094837
38	0xbdd0446e	-0.10169302
39	0x3d0ea264	0.034822837
40	0xbd72107d	-0.059097756
41	0xbe2fb6d9	-0.17159595
42	0xbd21dd34	-0.039517596
43	0xbdd1e851	-0.10249389
44	0xbd40e11b	-0.047089677
45	0xbd4ce72e	-0.050025158
46	0xbca1940a	-0.01972391
47	0xbe40cbcb	-0.18827741
48	0x3e4be1ee	0.19910404
49	0x3e07c813	0.13259916
50	0xbe02e4e2	-0.12782624
51	0x3e4221ca	0.18958202
52	0xbd9c90a5	-0.07644776
53	0xbe3b6ca9	-0.1830317
54	0x3db294e6	0.087198064
55	0xbd84b929	-0.06480629
56	0x3e3486ab	0.17629497
57	0x3c683444	0.014172617
58	0xbe155fec	-0.14587373
59	0x3e7597f8	0.23983753
60	0x3d9f3616	0.07773988
61	0x3de0727f	0.109593384
62	0xbc16828d	-0.009186399
63	0xbe147f27	-0.1450163
64	0x3d80d364	0.062903196
65	0x3c890f56	0.016730946
66	0xbe0fdd98	-0.14049375
67	0x3e128cc6	0.14311513
68	0xbe83e066	-0.2575714
69	0xbd8d1427	-0.068886094
70	0xbce5dc27	-0.028059078
71	0xbe27a1eb	-0.1637036
72	0xbe7eac1e	-0.24870345
73	0xbd438c42	-0.047741182
74	0xbd1adb64	-0.037806883
75	0x3e4bab61	0.19889595
76	0x3ddd1cb3	0.107964896
77	0x3e8b6572	0.27225834
78	0x3d8314c5	0.06400446
79	0x3d257985	0.040399093
80	0xbca3e55c	-0.020006828
81	0xbdd76f6a	-0.105192974
82	0xbe402717	-0.18764912
83	0xbe284dab	-0.16435878
84	0x3d6e906d	0.058243204
85	0xbe1f9f9c	-0.1558823
86	0xbe045608	-0.12923443
87	0x3daf3ba9	0.08556301
88	0xbdc4b62c	-0.09605059
89	0x3d88934f	0.06668722
90	0xbc263b7b	-0.010146017
91	0x3d4eaa76	0.050455533
92	0xbdd9e7b5	-0.10639898
93	0x3dd3996c	0.10331997
94	0xbda2512a	-0.07925637
95	0xbe411e06	-0.1885911
96	0x3e06ecda	0.13176289
97	0xbdf2d79f	-0.11857533
98	0x3e57a07a	0.2105731
99	0x3d1dff4c	0.03857355
100	0x3da108c9	0.07863004
101	0xbb436d7a	-0.0029819892
102	0x3d2d130c	0.042254493
103	0x3bf841b1	0.0075761904
104	0xbdd6514b	-0.10464724
105	0x3d38c0ab	0.045105617
106	0x3dcf3c9c	0.10118982
107	0x3d614efa	0.05500696
108	0x3e158950	0.14603162
109	0xbcd1194e	-0.025524762
110	0xbd97ebdb	-0.07418033
111	0xbe1347b0	-0.14382815
112	0xbe4929ed	-0.196449
113	0xbe83da64	-0.25752556
114	0xbdcabc00	-0.098991394
115	0x3dc9aa3d	0.098469235
116	0x3e093c9a	0.13402024
117	0xbe43e262	-0.19129327
118	0xbe579f7d	-0.21056934
119	0x3e1a8538	0.15089881
120	0xbd0a9188	-0.033830196
121	0x3d632ae0	0.05546081
122	0x3dfa1799	0.12211532
123	0x3e43c1c7	0.19116889
124	0x3d4babdb	0.04972444
125	0x3d9041ce	0.07043801
126	0xbc502bd6	-0.012705764
127	0x3dde34b8	0.10849899
128	0x3d1414a7	0.036152508
129	0xbe1e2410	-0.15443444
130	0xbddf0b6b	-0.1089085
131	0x3e369b53	0.17832689
132	0xbe29f0dd	-0.16595788
133	0x3de21c16	0.11040513
134	0x3e3cb6e5	0.18429144
135	0x3e65c0f5	0.22436889
136	0x3daff0d0	0.08590853
137	0x3d30c70e	0.043158583
138	0x3da2cb58	0.07948941
139	0x3e06fe3d	0.13182922
140	0x3cfd08be	0.030887958
141	0xbe35cf3f	-0.1775484
142	0x3e1ce04c	0.15319937
143	0x3c8ecf22	0.017432753
144	0x3e04653a	0.1292924
145	0xbe5eb313	-0.21747999
146	0xbdbcab8a	-0.09212406
147	0xbdc16ed7	-0.09444969
148	0xbc3f42c3	-0.011673632
149	0x3e2a7e6e	0.16649792
150	0x3d6f357d	0.05840062
151	0x3e46311d	0.19354673
152	0x3e28d95d	0.16489168
153	0xbe1f70b9	-0.15570344
154	0x3e5a2478	0.21302974
155	0xbdffaa1e	-0.12483619
156	0x3e30343f	0.1720743
157	0xbc08776d	-0.008329255
158	0xbc84ea09	-0.016224878
159	0x3e3202b2	0.1738384
160	0xbdf53029	-0.119720764
161	0xbdcbad4b	-0.099451624
162	0xbd5b0e8a	-0.053480662
163	0x3d6ada5a	0.057337143
164	0xbda71988	-0.081591666
165	0x3de56786	0.11201386
166	0xbd590466	-0.05298271
167	0x3e043eb1	0.1291454
168	0x3df9ebf1	0.122032054
169	0x3e34a7f6	0.17642197
170	0x3c76d11c	0.015064504
171	0xbe28c266	-0.16480407
172	0xbe3df403	-0.18550114
173	0xbe78c2fb	-0.24293129
174	0xbe869b6b	-0.2629045
175	0xbe2fa2a1	-0.17151882
176	0xbd7568c7	-0.059914377
177	0x3e6e2e59	0.23259868
178	0xbe0c81f3	-0.13721447
179	0x3e12bc2d	0.14329596
180	0xbd8f0f1d	-0.069853045
181	0x3ce259e8	0.027630761
182	0x3d80a273	0.06280985
183	0x3c7d0af8	0.01544451
184	0x3e27669f	0.1634774
185	0xbdf2a6c6	-0.11848216
186	0xbe3fa9bb	-0.18717091
187	0xbdad4012	-0.08459486
188	0x3bc3202f	0.0059547643
189	0x3e425d66	0.18980941
190	0x3db67b3b	0.08910223
191	0x3c3a9822	0.01138881
192	0xbd4b06ec	-0.049567148
193	0xbdc9963e	-0.098431095
194	0x3e384840	0.17996311
195	0xbe8f1017	-0.27941963
196	0xbe7478a1	-0.23874141
197	0x3ddcac85	0.10775093
198	0x3e5cccc9	0.21562494
199	0x3dbeca21	0.09315897
200	0xbc3fcdcb	-0.01170678
201	0xbcb70f22	-0.022346083
202	0x3d7aba5c	0.061212882
203	0xbd395f1f	-0.04525673
204	0x3e3531ef	0.1769483
205	0x3e80077f	0.2500572
206	0xbdfa00e6	-0.122072026
207	0x3dcf5aaf	0.101247184
208	0xbb598897	-0.0033192986
209	0xbe07ea00	-0.13272858
210	0x3cac339a	0.0210207
211	0xbdf20cfc	-0.11818883
212	0x3e16f558	0.14742029
213	0x3c35fd92	0.011107819
214	0xbd4fcd6d	-0.05073302
215	0xbe203fdf	-0.15649365
216	0x3e14c917	0.14529835
217	0x3dd4c04f	0.103882425
218	0x3d14497a	0.036202885
219	0xbb8af56d	-0.004240683
220	0xbd3e7df2	-0.04650683
221	0xbdb97cf7	-0.09057038
222	0x3e3a9bba	0.18223467
223	0xbd664223	-0.056215417
224	0x3d7cdb6a	0.061732687
225	0xbe040c4f	-0.1289532
226	0xbba846b8	-0.0051353835
227	0xbd878e95	-0.06618992
228	0xbc8d9c17	-0.017286344
229	0xbde0d5be	-0.10978268
230	0x3e432d51	0.19060256
231	0x3e439566	0.1909996
232	0xbdbea344	-0.09308484
233	0xbdaeee28	-0.085415184
234	0x3dcee6ef	0.10102641
235	0x3e140775	0.1445597
236	0xbd8a56ad	-0.06754813
237	0x3c48c6d1	0.012254433
238	0xbd15f4be	-0.036610357
239	0x3e1da6a5	0.15395601
240	0xbd86dac3	-0.06584694
241	0xbdfc0ed2	-0.12307514
242	0x3de5aa7f	0.1121416
243	0xbcdb6bed	-0.026784861
244	0xbdb45265	-0.08804778
245	0x3e2ce2f1	0.16883446
246	0xbcd2d3a4	-0.025735684
247	0xbdf1e3af	-0.11811005
248	0xbe1179d8	-0.14206636
249	0xbe05244f	-0.13002132
250	0xbd11f17f	-0.0356307
251	0xbdfaf889	-0.122544356
252	0x3df7c9b2	0.12099017
253	0x3dbe9459	0.09305639
254	0xbe995dc0	-0.29954338
255	0x3dfb2aff	0.1226406

fc2.weight f4 [128, 256]
0	0xbe30388c	-0.17209071
1	0xbeb405ed	-0.3516077
2	0xbc718c63	-0.014742943
3	0xbdfc81cd	-0.12329445
4	0x3ddb59b2	0.107104674
5	0x3c4670ff	0.012111901
6	0x3c95d45a	0.018289734
7	0xbdfe7f28	-0.12426597
8	0x3d9fe5a9	0.07807476
9	0x3dc09c62	0.09404828
10	0x3e8048d7	0.25055572
11	0xbe2f5952	-0.17123917
12	0x3e0b2994	0.1359008
13	0xbe2d936e	-0.16950771
14	0xbe213903	-0.15744404
15	0x3decd41b	0.115638934
16	0x3d86a0aa	0.06573613
17	0x3ee03f18	0.43798137
18	0x3e23ee5d	0.16008897
19	0xbcbb81a4	-0.022888966
20	0xbe248ce4	-0.1606937
21	0x3e3d6a97	0.18497692
22	0x3cb45104	0.022011288
23	0x3e1caad6	0.15299544
24	0x3dc2c042	0.095093265
25	0xbe0b7dc4	-0.13622195
26	0xbe4a0c94	-0.1973136
27	0xbd8c4104	-0.06848338
28	0xbd539e66	-0.051664732
29	0xbdee5dd3	-0.11638989
30	0x3df8b281	0.12143422
31	0xbe6b7d6a	-0.2299706
32	0x3e04f8e2	0.12985566
33	0xbe07119e	-0.13190314
34	0x3dbde339	0.09271855
35	0xbca28d2e	-0.01984271
36	0x3e1b1a91	0.15146853
37	0xbdfceb39	-0.12349553
38	0xbd48cec3	-0.04902531
39	0x3e0366b7	0.12832151
40	0xbd87eb91	-0.066367276
41	0xbd222309	-0.039584193
42	0xbdb5d356	-0.088782
43	0xbeb4d86d	-0.3532137
44	0x3f0f556b	0.5598971
45	0x3a628523	0.0008641055
46	0x3d65f4b9	0.05614159
47	0xbd16095d	-0.036630023
48	0x3cb1add1	0.021689327
49	0x3d8fdd3d	0.0702462
50	0xbe10f4fe	-0.14155957
51	0x3dda6368	0.106634915
52	0x3c44deb9	0.012015992
53	0xbb6c8930	-0.0036092512
54	0x3d6e0288	0.058107883
55	0xbbf53e38	-0.0074842237
56	0xbd28a644	-0.04117419
57	0xba396ea0	-0.00070736744
58	0xbcac6ba3	-0.021047419
59	0xbd77ad34	-0.060467914
60	0xbe3aa0b6	-0.18225369
61	0x3e66a941	0.22525503
62	0x3d57c3ea	0.052677073
63	0xbdc2a074	-0.0950326
64	0xbe0a9f7a	-0.13537398
65	0x3cb1d14e	0.02170625
66	0x3d79c3c2	0.060977705
67	0x3b73c08c	0.0037193624
68	0x3daa59f4	0.083179384
69	0x3e24b41d	0.16084333
70	0x3caabaa9	0.02084096
71	0xbd8a05d2	-0.067393914
72	0xbe22fe7e	-0.15917394
73	0x3d5b06b6	0.053473197
74	0x3d655908	0.05599311
75	0xbd7dd13f	-0.06196713
76	0x3c8a6647	0.016894473
77	0x3ca0c467	0.019624902
78	0xbd3bfd86	-0.045896076
79	0xbd8de399	-0.069281764
80	0xbe3aa974	-0.18228704
81	0xbe2099bb	-0.15683644
82	0x3ca99593	0.020701205
83	0x3e176392	0.14784077
84	0x3d3dfc6f	0.046383318
85	0x3d96306d	0.07333455
86	0x3d277015	0.040878374
87	0xbe8299c3	-0.25507936
88	0x3d4ced3f	0.050030943
89	0xbc418d78	-0.011813514
90	0x3deee158	0.11664075
91	0x3d20bcb3	0.039242458
92	0x3d939036	0.072052404
93	0x3def7b13	0.116933964
94	0xbe00d8df	-0.1258273
95	0x3bf6e1d1	0.0075342436
96	0x3dfccb16	0.12343423
97	0xbe2d1f29	-0.16906418
98	0x3dc5a518	0.0965063
99	0x3e199482	0.14998057
100	0xbe27b054	-0.16375858
101	0x3dcf2ad0	0.10115588
102	0xbe5d41ba	-0.21607104
103	0x3e0e3ab0	0.13889575
104	0x3e383c27	0.17991696
105	0x3e1de828	0.15420592
106	0x3d9cf488	0.07663828
107	0x3d89abaf	0.06722199
108	0xbdd17f48	-0.10229355
109	0xbc786c6d	-0.0151625695
110	0xbd34dc64	-0.044155493
111	0xbd30636e	-0.043063574
112	0xbe40e734	-0.18838197
113	0x3f3bdd9d	0.7338503
114	0xbd5e5055	-0.05427583
115	0xbdefc465	-0.11707381
116	0x3e3a75ae	0.18208954
117	0xbd0e5676	-0.034750424
118	0xbd0b4f5f	-0.03401124
119	0x3d686f23	0.056746613
120	0x3e25b9d9	0.16184177
121	0xbcaa3269	-0.02077599
122	0xbe4ab4e9	-0.19795574
123	0x3b8749eb	0.0041286848
124	0x3dc60611	0.09669126
125	0x3e20dee1	0.15710022
126	0x3d5b6e51	0.053572003
127	0x3cae77b9	0.021297323
128	0xbdc35a77	-0.09538739
129	0x3d9ccce1	0.07656265
130	0x3cebcf89	0.028785484
131	0x3e21c2f6	0.15797028
132	0xbca98fc1	-0.02069843
133	0xbc558f4c	-0.013034653
134	0xbcc2eb78	-0.02379392
135	0xbc571053	-0.013126451
136	0x3e14aec5	0.14519794
137	0xbd6d7438	-0.057972163
138	0xbda15fd6	-0.078796074
139	0xbcb895c1	-0.022532346
140	0xbd9fa79d	-0.077956416
141	0x3d9a7fcc	0.075439066
142	0x3d041ef9	0.0322561
143	0xbd1cf64d	-0.03832083
144	0x3ba44ab7	0.0050137895
145	0x3c4a43d0	0.012345269
146	0x3cf3829b	0.029725363
147	0x3d5793ac	0.052631065
148	0xbe1c4b07	-0.15262996
149	0xbd03b3ae	-0.032153778
150	0x3ce3b8ce	0.027798083
151	0xbda97009	-0.08273322
152	0x3cf5b2db	0.029992511
153	0x3da73aa5	0.081654824
154	0x3d5a60fb	0.053315144
155	0x3e4dc772	0.20095614
156	0xbc510b5d	-0.012759057
157	0xba9a62b0	-0.0011778679
158	0xbb90b83f	-0.004416495
159	0xbbb1b42f	-0.005423091
160	0x3cb67f3b	0.022277465
161	0xbf0dc6fe	-0.55381763
162	0x3dd012db	0.101598464
163	0x3d94f3ca	0.072730616
164	0x3dde98ea	0.1086901
165	0xbebc17fd	-0.36737052
166	0xbde46e96	-0.11153905
167	0x3dca36fb	0.09873768
168	0x3daefc86	0.08544259
169	0x3d59224a	0.053011216
170	0x3d1e18bb	0.038597804
171	0x3d529989	0.051415954
172	0xbd59fbc1	-0.053218607
173	0xbdff9b6b	-0.124808155
174	0xbe65b351	-0.22431685
175	0xbd2a6335	-0.041598517
176	0x3bb75855	0.005595247
177	0xbd0c1525	-0.034199852
178	0x3c8abbf4	0.016935326
179	0x3e8aa02d	0.2707533
180	0x3eac0d65	0.3360397
181	0xbe30d676	-0.1726931
182	0x3e1b6e3f	0.15178774
183	0xbde71d97	-0.11284941
184	0x3a853526	0.0010162934
185	0x3d83ce95	0.06435887
186	0x3ca94d1f	0.020666657
187	0xba72dae4	-0.00092641846
188	0xbcac1fb6	-0.021011215
189	0x3e50e166	0.20398483
190	0xbdc2eb6d	-0.0951756
191	0xbd920ce1	-0.07131363
192	0xbd3d7b60	-0.046260238
193	0xbdb64646	-0.08900122
194	0xbea9010b	-0.33008608
195	0x3d61ad7d	0.055097092
196	0x3d930007	0.071777396
197	0x3d569e70	0.05239719
198	0xbd2c9e66	-0.042143248
199	0xbd0afea3	-0.033934247
200	0x3d958a08	0.07301718
201	0xbd377e0d	-0.044797946
202	0x3d1e836c	0.038699552
203	0x3d5afc62	0.053463347
204	0x3df59c3c	0.1199269
205	0x3ea6cceb	0.32578215
206	0xbe1b814e	-0.15186045
207	0x3e179f78	0.14806926
208	0x3c655b24	0.01399878
209	0xbd54ad31	-0.05192298
210	0x3e06a00c	0.1314699
211	0xbd109801	-0.035301212
212	0x3d993613	0.07481017
213	0x3e16542c	0.14680547
214	0x3dc56a76	0.096394464
215	0x3d4343aa	0.04767195
216	0xbdb369a9	-0.087603875
217	0xbd0e4085	-0.0347295
218	0xbcb5659b	-0.022143176
219	0xbc18dc85	-0.00932992
220	0x3d365672	0.044516034
221	0x3dc75819	0.097336
222	0x3da0a874	0.0784463
223	0x3b7ba3d1	0.0038397203
224	0xbbae512b	-0.0053197346
225	0x3d2954d5	0.041340668
226	0xbe188145	-0.14893062
227	0x3dfba10c	0.12286577
228	0xbb20cc37	-0.0024535784
229	0x3e0ad7de	0.1355891
230	0xbdab4f9d	-0.083647944
231	0xbeba6f12	-0.36412865
232	0xbd4cbec6	-0.049986623
233	0x3d8a29dd	0.06746266
234	0xbafdfd7b	-0.0019377911
235	0x3da9c518	0.08289546
236	0x3d3de8b1	0.04636449
237	0x3d842fd0	0.06454432
238	0x3c39f644	0.011350218
239	0xbcaabdc9	-0.02084245
240	0xbd20d519	-0.039265726
241	0xbcad8739	-0.021182643
242	0x3db7785f	0.08958506
243	0xbe34173d	-0.1758699
244	0x3d4743f9	0.04864881
245	0x3e016926	0.12637767
246	0x3e08364c	0.13301963
247	0x3dd53e88	0.104123175
248	0x3e448d54	0.19194537
249	0x3dbc592e	0.09196697
250	0x3db6bb6b	0.08922466
251	0x3eee2d28	0.46518826
252	0x3d1141bb	0.035463076
253	0xbe0430ea	-0.12909284
254	0xbce68b42	-0.028142575
255	0xbd51e1b1	-0.051240627

fc2.bias f4 [128]
0	0x3d9f8e9c	0.077908725
1	0x3c2f3a6a	0.010695079
2	0xbba580de	-0.0050507626
3	0x3db61bdf	0.08892035
4	0xbcb835f0	-0.022486657
5	0x3da0ef0d	0.07858095
6	0xbb89e09d	-0.004207684
7	0xbd67cccb	-0.05659179
8	0xbbdc2ae3	-0.0067189797
9	0x3cafaf3e	0.021445867
10	0x3cffbcf0	0.031218022
11	0x3d46d266	0.048540495
12	0xbe10c45f	-0.1413741
13	0xbc8925ce	-0.01674166
14	0x3ce43e45	0.027861724
15	0x3d3c474c	0.04596643
16	0xbdcfc00b	-0.10144051
17	0xbd89c820	-0.06727624
18	0xbd6a186a	-0.05715219
19	0xbd824da9	-0.06362469
20	0xbc52ac00	-0.012858391
21	0xbb89f6ad	-0.0042103142
22	0x3d183df9	0.037168477
23	0xb91c2157	-0.0001488974
24	0x3e022453	0.12709169
25	0xbc94af7c	-0.018150084
26	0xbd3c1f5d	-0.045928348
27	0x3cfe29bf	0.031025765
28	0x3bc5aa18	0.0060322396
29	0xbda673b8	-0.0812754
30	0x3d785b2b	0.06063382
31	0x3c69f71c	0.014280107
32	0xbd8bf21a	-0.068332866
33	0xbdb87342	-0.09006359
34	0xbdb3d57c	-0.08780953
35	0xbbfbf127	-0.0076886597
36	0x3b35cd72	0.0027740863
37	0xbc9ee00c	-0.019393943
38	0xbd39a9f1	-0.045328084
39	0xbdfd19f5	-0.123584665
40	0xbd1f3344	-0.03886725
41	0x3da7ca69	0.081929035
42	0x3bd70cb8	0.0065627955
43	0x3d1f25dd	0.03885447
44	0x3d0f0ca0	0.03492415
45	0xbcd4c0de	-0.025970872
46	0xbc783c64	-0.015151117
47	0x3da7bda7	0.0819047
48	0xbe02db54	-0.1277898
49	0xbd493d63	-0.04913081
50	0xbd31e7e0	-0.043434024
51	0x3bca0fd5	0.006166438
52	0x3c8f3c74	0.017484881
53	0x3862e142	5.4092387e-05
54	0xbc587859	-0.013212287
55	0x3dc49c26	0.096000955
56	0x3bc25e3e	0.0059316447
57	0x3d815140	0.06314325
58	0xbd0c7e27	-0.034299996
59	0x3d1be5af	0.03806084
60	0x3c9431e8	0.018090203
61	0xbde442cb	-0.11145552
62	0xbcbb1361	-0.022836389
63	0x3b5fc646	0.003414528
64	0x3d825349	0.06363542
65	0x3d9c7db6	0.07641165
66	0xbd16eb2f	-0.036845382
67	0xbd1f51fa	-0.03889654
68	0xbb7f9fb9	-0.0039005114
69	0x3e0b73c4	0.1361838
70	0x3c4bd8c2	0.012441816
71	0xbd908bc0	-0.07057905
72	0xbd4a1584	-0.049336925
73	0x3c96154f	0.018320708
74	0x3c4dbb8d	0.012556923
75	0xbd9e6dad	-0.07735763
76	0xbd811974	-0.06303683
77	0x3dd66551	0.10468543
78	0xbd2cafdf	-0.04215991
79	0xbd233675	-0.039846856
80	0xbc983500	-0.01857996
81	0xbd1f831c	-0.038943395
82	0x3ceb68c7	0.028736485
83	0xbd825bd0	-0.06365168
84	0xbbb7bbd3	-0.005607107
85	0xbcc5fe00	-0.024168968
86	0xbd1dc295	-0.038515646
87	0xbd46d7a9	-0.048545513
88	0x3d4cb98b	0.049981635
89	0xbdbaf167	-0.09128075
90	0x3d9bd521	0.076090105
91	0x3ca2b3e4	0.01986117
92	0x3cf6ecfb	0.030142298
93	0x3b9753d4	0.0046181474
94	0x3d59adc0	0.053144217
95	0x3cc1f83b	0.023677936
96	0x3cf43fb0	0.029815525
97	0xbccc7838	-0.024959669
98	0x3c485836	0.012228062
99	0x3d442273	0.047884416
100	0x3d5a26e2	0.053259738
101	0xbd22316c	-0.039597914
102	0xbd890a3c	-0.06691405
103	0x3d2192b7	0.03944656
104	0xbcbd4097	-0.023102088
105	0xbb29a86d	-0.0025887743
106	0xbd82b0b7	-0.06381362
107	0x3bbf8e05	0.0058457875
108	0xbcd17b42	-0.02557147
109	0x3d7c2e05	0.061567325
110	0xbde6d351	-0.11270774
111	0xbcc94fdb	-0.02457421
112	0x3cdfff81	0.027343513
113	0x3d08cf6b	0.033400934
114	0x3ca9f65e	0.02074736
115	0xbd8daa5d	-0.0691726
116	0xbd793acd	-0.060847092
117	0xbd268b59	-0.040660236
118	0x3d4a1e04	0.04934503
119	0xbdd47152	-0.10373177
120	0xbb57fa94	-0.0032955753
121	0xbc2480b0	-0.010040447
122	0x3dd05163	0.10171773
123	0xbcd28954	-0.025700249
124	0xba91acce	-0.0011114122
125	0x3d1a8d50	0.037732422
126	0x3c8bbb7a	0.01705717
127	0x3d923ef2	0.07140912

fc3.weight f4 [2, 128]
0	0xbdd92ed2	-0.106046334
1	0xbd8e782d	-0.069565155
2	0x3dabeb0c	0.08394441
3	0x3b449843	0.0029997982
4	0xbea14b8f	-0.3150296
5	0x3afc2bc5	0.0019239119
6	0x3dd694eb	0.104776226
7	0xbc5bf5b6	-0.013425281
8	0xbe8e481a	-0.27789384
9	0x3e918060	0.28418255
10	0x3e1a8b67	0.1509224
11	0xbe6103f1	-0.2197416
12	0xbe3acccc	-0.18242186
13	0x3f2fc5e1	0.68661314
14	0x3c09c422	0.008408578
15	0xbccf3494	-0.025293626
16	0x3d693976	0.056939565
17	0xbe344a97	-0.17606579
18	0xbe2cc975	-0.16873725
19	0xbedb7334	-0.4286133
20	0x3e8fc56d	0.2808031
21	0xbc89a58d	-0.016802574
22	0xbc6bf239	-0.014401012
23	0x3d0436e3	0.032278907
24	0xbc05bbe7	-0.008162475
25	0xbcb975f3	-0.02263925
26	0x3da7f350	0.08200705
27	0xbda1e2a0	-0.079045534
28	0x3e3e8662	0.1860595
29	0x3d8a919c	0.06766054
30	0x3d6d615e	0.057954185
31	0x3e85dfe2	0.26147372
32	0xbdbddf42	-0.09271099
33	0xbed3ede5	-0.41392437
34	0xbdab700d	-0.08370981
35	0xbdcff190	-0.10153496
36	0xbe8a0240	-0.26954842
37	0xbd977a4d	-0.07396374
38	0xbe376b74	-0.17912084
39	0xbed0f7bf	-0.40814015
40	0xbe907cb3	-0.28220138
41	0x3e0fb14b	0.14032476
42	0x3ea6d8f5	0.325874
43	0x3bb35701	0.005473018
44	0xba490b9e	-0.00076692726
45	0xbe9afb07	-0.30269644
46	0x3d9dd4bb	0.07706591
47	0x3d88662b	0.06660112
48	0xbe27c708	-0.16384518
49	0x3d50cddb	0.05097757
50	0xbcde882d	-0.027164543
51	0xba1c2451	-0.00059563393
52	0x3ce00826	0.027347635
53	0x3e55793d	0.2084703
54	0x3dd75ffb	0.10516354
55	0x3d913998	0.07091063
56	0x3cdb5955	0.026775995
57	0xbbf7643c	-0.0075497907
58	0xbf041cda	-0.51606524
59	0x3e93bd29	0.28855255
60	0xbeb28411	-0.34866384
61	0x3e6b3bc3	0.22972016
62	0x3e2b5c31	0.16734387
63	0x3d185375	0.037188966
64	0x3dde6fb6	0.10861151
65	0x3e908922	0.28229624
66	0xbe1786f2	-0.14797571
67	0xbd558375	-0.05212732
68	0x3e26aa8f	0.16276
69	0x3ed1ae77	0.4095342
70	0xbcb58b85	-0.022161255
71	0xbdd83070	-0.10556114
72	0xbe8559bb	-0.2604502
73	0xbc8e1108	-0.017342106
74	0x3f592f13	0.84837455
75	0xbf241f20	-0.64109993
76	0xbbb2d909	-0.0054580015
77	0x3edaf051	0.42761472
78	0xbf1674f6	-0.5877222
79	0xbe096885	-0.13418777
80	0xbb974c81	-0.0046172743
81	0xbb8424af	-0.0040326933
82	0xbd902973	-0.07039156
83	0x3e56264b	0.20913045
84	0xbe5322d2	-0.20618752
85	0xbe2316df	-0.15926693
86	0x3dd77744	0.10520795
87	0xbcc66521	-0.024218144
88	0xbd9a0ce9	-0.07521994
89	0xbedf3204	-0.43592846
90	0x3dc9b7a4	0.0984948
91	0x3cce78e2	0.025204126
92	0x3e223473	0.1584032
93	0xbdc68ee1	-0.09695221
94	0xbcf7bdd8	-0.030241892
95	0x3e04bbc8	0.12962258
96	0xbe56395b	-0.20920317
97	0xbec02dd2	-0.37534958
98	0xbd7e5caa	-0.06210009
99	0x3da83193	0.082125805
100	0xbd0e581c	-0.034751996
101	0xbe957e2e	-0.2919783
102	0x3b99b0dd	0.004690273
103	0x3e4507bd	0.19241233
104	0x3db72bc5	0.08943895
105	0x3e1987a8	0.14993155
106	0xbec1ddbe	-0.37864488
107	0x3e02120b	0.12702195
108	0xbd034d45	-0.03205611
109	0x3ea2d9f5	0.31806913
110	0xbc875d86	-0.016524088
111	0xbba80aaf	-0.0051282267
112	0x3d80bc83	0.06285956
113	0x3e83dfee	0.25756782
114	0xbd3be73c	-0.04587482
115	0xbf009e6e	-0.50241745
116	0x3e047fc5	0.12939365
117	0xbd04f568	-0.0324606
118	0x3e0a5b90	0.13511491
119	0xbeaf0024	-0.34179795
120	0xbdacefbd	-0.08444164
121	0x3ec2efe7	0.38073656
122	0x3e13ee0b	0.14446275
123	0xbde05551	-0.10953773
124	0xbd89229c	-0.06696054
125	0xbdac172f	-0.084028594
126	0xbd9d5588	-0.076823294
127	0xbc93e871	-0.018055173
128	0xbeacfad9	-0.33785132
129	0x3c537d99	0.012908363
130	0x3dc06136	0.093935415
131	0xbf198c13	-0.5997936
132	0xbda7940e	-0.08182536
133	0xbecbe072	-0.39819676
134	0x3d05c9e8	0.032663256
135	0xbe1ca099	-0.15295638
136	0x3e187a5a	0.14890423
137	0x3d81080a	0.063003615
138	0xbdd659ee	-0.104663715
139	0xbed06e50	-0.40709162
140	0xbc9fd6ec	-0.019511662
141	0xbf205833	-0.6263458
142	0xbe85fdc0	-0.26170158
143	0xbdadace4	-0.08480242
144	0x3d23fe31	0.040037338
145	0xbca62eca	-0.020285983
146	0x3d8d9bbf	0.06914472
147	0xbee0e2f7	-0.4392316
148	0xbe1e7716	-0.15475115
149	0xbe62604d	-0.22107048
150	0xbe2e9110	-0.17047524
151	0xbb4409f6	-0.0029913164
152	0xbe392907	-0.18082057
153	0x3cc4771a	0.023982573
154	0xbe9dfa3c	-0.30854976
155	0xbe02dad5	-0.1277879
156	0x3d0c20b2	0.03421087
157	0x3eb1659a	0.34647828
158	0x3e44f839	0.19235314
159	0x3dab0733	0.083509825
160	0x3dbceca4	0.09224823
161	0x3df3dd09	0.119073935
162	0x3b9e921c	0.004839195
163	0xbf0bad7f	-0.5456161
164	0x3db4706c	0.08810505
165	0xbe5d558e	-0.21614668
166	0x3e872602	0.26396185
167	0xbe69648b	-0.2279226
168	0x3dd42ab1	0.10359705
169	0x3e47682d	0.19473334
170	0x3d7d3403	0.06181718
171	0x3d596173	0.05307145
172	0xbedf55ac	-0.4362005
173	0xbea6eacc	-0.3260101
174	0xbde96388	-0.11395937
175	0x3ee6143a	0.44937307
176	0xbc871f02	-0.016494278
177	0x3e9f591f	0.31122681
178	0xbe087902	-0.13327411
179	0xbdea6b71	-0.11446274
180	0x3e00ee1f	0.12590836
181	0x3c1e28ad	0.009653253
182	0xbe7ab52d	-0.24483176
183	0x3bbb0880	0.0057078004
184	0x3e0e3f9f	0.13891457
185	0xbee5ea4d	-0.4490532
186	0x3d8f51da	0.06998034
187	0x3ddd6cff	0.10811805
188	0xbf92e25a	-1.1475327
189	0xbe9e07b7	-0.3086526
190	0x3e4dca75	0.20096762
191	0x3e4e66b9	0.20156373
192	0x3e16a4f6	0.14711365
193	0x3d6fdb8e	0.058558993
194	0xbd049fc7	-0.032378938
195	0x3d1a4b92	0.037669726
196	0x3da74117	0.08166712
197	0x3e448ba5	0.19193895
198	0xbe6a2207	-0.22864543
199	0x3db045f7	0.08607095
200	0x3d964bbb	0.07338663
201	0xbf1f8728	-0.6231561
202	0xbec04e39	-0.3755968
203	0x3b603bc1	0.0034215304
204	0xbdafbbb1	-0.08580721
205	0xbe8620f3	-0.26197013
206	0xbd5113ea	-0.051044382
207	0xbb8d343f	-0.0043092067
208	0x3d82cb84	0.06386474
209	0x3d5f5296	0.05452212
210	0x3e259b08	0.16172421
211	0x3ec5fb1b	0.3866814
212	0xbd12fc57	-0.03588518
213	0x3d2ac70d	0.041693736
214	0xbc54f2c5	-0.012997334
215	0xbc88beea	-0.016692597
216	0xbc92aead	-0.017905558
217	0xbf4fff44	-0.8124888
218	0xbf43ee65	-0.76535636
219	0x3da7dd4f	0.08196508
220	0xbeb0fc24	-0.34567368
221	0x3d5ce10c	0.05392556
222	0xbf3246b9	-0.69639164
223	0xbd370c75	-0.044689614
224	0xbeaba47b	-0.33523926
225	0x3ea10ac6	0.31453532
226	0x3c6cffe7	0.014465309
227	0xbe9f9977	-0.31171772
228	0x3e3bdc30	0.18345714
229	0x3e04e3c2	0.12977508
230	0x3d237d96	0.03991469
231	0x3dcaebb4	0.09908238
232	0x3d2f5f9c	0.04281579
233	0x3ea592a0	0.32338428
234	0x3e3534ea	0.17695966
235	0x3e17b656	0.1481565
236	0xbac81153	-0.0015263952
237	0x3e016e32	0.12639692
238	0xbf7fa2a3	-0.9985754
239	0x3e9c0e84	0.30479825
240	0x3e51d810	0.20492578
241	0xbd030fd7	-0.031997528
242	0xbf1a93bd	-0.6038168
243	0x3d42d756	0.04756864
244	0xbd44091b	-0.047860246
245	0xbd560b2c	-0.052256748
246	0xbf2f2fb6	-0.68432176
247	0xbdc70473	-0.097176455
248	0xbe22cd3b	-0.15898602
249	0xbe6b1566	-0.22957382
250	0x3e4230d9	0.18963946
251	0xbd1ee018	-0.03878793
252	0x3d9dff60	0.077147245
253	0x3e0eef8e	0.1395857
254	0xbe453d67	-0.19261704
255	0xbec7c428	-0.39016843

fc3.bias f4 [2]
0	0x3bc3c38b	0.0059742383
1	0x3da1ef86	0.079070136
