agent1_checkpoint_actor.pth (torch_old, 159204 bytes, 6 tensors)

fc1.weight f4 [256, 24]
0.03307253 0.11214101 -0.019677969 -0.024409944 0.023506131 -0.0046393787 -0.015133574 0.052599862
0.00986637 0.18007617 -0.118854314 -0.049092136 0.08520624 -0.047432955 -0.056800414 0.0041062403
-0.03967351 0.12371423 -0.064350195 -0.023781639 0.12004376 -0.18135102 0.0010537016 -0.068949215
-0.062242914 0.15289222 -0.007356289 0.12745129 0.0033045926 -0.07893205 0.0011609512 0.034694433
-0.062409826 0.09724999 0.019410012 0.00028399678 0.09590347 0.050657414 -0.028009897 0.010345246
-0.034631465 0.045951463 -0.03003974 -0.021198913 0.27376476 0.36542985 0.015174156 -0.059515186
0.089264184 0.04796394 -0.013457448 0.06434244 0.11452563 0.25441107 -0.09622261 0.010382695
0.1373451 0.007686431 -0.04940224 -0.060211424 0.14340512 0.18827967 -0.030217776 -0.040375605
0.143622 0.003944777 -0.013165938 0.005595619 0.11457997 0.12480476 0.03321367 0.080716304
-0.02119063 0.015796479 -0.019400995 -0.15458147 0.11013316 0.070821896 0.0044188965 -0.16154277
-0.06344326 -0.024188122 -0.047226846 -0.12023944 0.071573734 -0.028909558 -0.008778588 -0.048393663
0.0050412784 0.0027125285 -0.05586029 -0.117803946 -0.055127036 -0.13553302 0.04062177 -0.08824606
-0.044411503 0.03591776 0.0804915 -0.17122184 0.109732434 -0.050092537 -0.025251625 -0.24345592
-0.043242343 0.03879706 0.025074825 -0.17543611 0.09684519 0.10724094 0.047057636 -0.1081248
0.045009557 0.057687465 -0.024694225 -0.17546366 -0.10044483 -0.04783847 0.013949192 -0.10721109
-0.012109312 0.1248943 -0.047642775 -0.013601892 0.07678199 0.050086267 0.030571986 0.004626651
-0.040057965 0.12101128 0.0037468667 -0.09111293 -0.037821244 0.12345364 0.071341835 -0.06513844
0.0006319833 -0.0053741806 0.03656895 -0.007993067 -0.04705903 0.06802258 0.04481096 -0.034188405
-0.030913323 0.23611777 -0.05031169 0.05663503 0.1903399 -0.11126063 -0.022865037 0.146173
0.07331661 0.20269662 0.02873061 0.036972865 0.018553464 -0.09145093 0.007486262 0.04520946
0.042808525 0.19372724 0.04799216 -0.015424661 -0.029568428 -0.11418209 0.04593883 0.015341176
-0.03680646 -0.09221939 -0.0075600143 0.02814968 0.19553453 -0.22624198 0.020351661 -0.01766274
-0.030710813 -0.03643285 -0.00534601 -0.011221878 -0.0045475448 0.028054442 0.008065717 -0.003715143
0.01851028 -0.028977105 -0.039990596 0.13203628 -0.12582488 0.201827 0.036555905 0.11254892
-0.09810802 0.26358226 0.011524835 0.07900997 -0.14172052 -0.05789433 0.013978548 0.05364654
-0.009938856 0.24861509 -0.0051479503 -0.09621966 0.109945506 0.1535439 0.015065379 -0.07147719
0.037667997 0.1956173 0.035143837 -0.10114476 0.266179 0.44841683 -0.042537853 -0.16741899
0.07365357 0.019410169 -0.025521412 0.031769656 0.09009235 0.016720703 -0.033696074 0.049359787
-0.014804421 -0.029452914 0.052216712 0.13204034 0.0147552425 0.20754495 0.0069473926 0.06174294
0.058455236 -0.05234067 -0.054910652 0.25473136 -0.091343984 0.16610679 0.04204339 0.2286112
0.005860993 -0.022646252 0.024966713 0.051996615 -0.2593188 -0.13677691 -0.017411156 0.10776444
0.04497937 -0.0056898776 0.02217426 0.061597623 0.08416808 -0.06406487 -0.019189317 0.083081245
00000000: 1077 073d 30aa e53d b133 a1bc 5df7 c7bc
00000010: ee8f c03c ee05 98bb cff2 77bc f472 573d
00000020: 8ea6 213c e365 383e e469 f3bd d614 49bd
00000030: 9c80 ae3d 0f49 42bd 8da7 68bd a48d 863b
00000040: b180 22bd e35d fd3d 09ca 83bd b6d1 c2bc
00000050: 81d9 f53d 15b4 39be 5c1c 8a3a 3f35 8dbd
00000060: 6df2 7ebd c78f 1c3e 060d f1bb 9782 023e
00000070: dd91 583b 20a7 a1bd 0f2b 983a c01b 0e3d
00000080: 72a1 7fbd 012b c73d bf01 9f3c 67e5 9439
00000090: 0a69 c43d 267e 4f3d 0375 e5bc 1b7f 293c
000000a0: b9d9 0dbd 9a37 3c3d e715 f6bc 58a9 adbc
000000b0: e52a 8c3e 9f19 bb3e 069d 783c 32c6 73bd
000000c0: 24d0 b63d d675 443d a17c 5cbc f8c5 833d
000000d0: 6a8c ea3d 2b42 823e 5c10 c5bd 2e1c 2a3c
000000e0: 32a4 0c3e 75de fb3b 015a 4abd 41a0 76bd
000000f0: cbd8 123e 63cc 403e 458b f7bc e460 25bd
00000100: a511 133e 3043 813b f2b5 57bc 745b b73b
00000110: e7a8 ea3d a399 ff3d 0f0b 083d 974e a53d
00000120: f997 adbc 9e67 813c d6ee 9ebc 9b4a 1ebe
00000130: 7f8d e13d 120b 913d 64cc 903b 786b 25be
00000140: 8aee 81bd 2b26 c6bc f070 41bd 1840 f6bd
00000150: 4095 923d bdd3 ecbc 11d4 0fbc 6f38 46bd
00000160: 4f31 a53b adc4 313b c2cd 64bd 3243 f1bd
00000170: e3cc 61bd 2bc9 0abe 0363 263d 5aba b4bd
00000180: d6e8 35bd 801e 133d bad8 a43d c754 2fbe
00000190: 66bb e03d d52d 4dbd 7fdc cebc 824c 79be
000001a0: e21e 31bd aae9 1e3d b869 cd3c 86a5 33be
000001b0: c556 c63d 23a1 db3d 82bf 403d 8970 ddbd
000001c0: f15b 383d b149 6c3d 8b4b cabc bfac 33be
000001d0: 05b6 cdbd 46f2 43bd 278b 643c 7d91 dbbd
000001e0: 2366 46bc 95c8 ff3d 1225 43bd 78da 5ebc
000001f0: e03f 9d3d 4227 4d3d 1a72 fa3c 299b 973b
00000200: d213 24bd c3d4 f73d fe8d 753b 6a99 babd
00000210: 73ea 1abd 43d5 fc3d ab1b 923d 4d67 85bd
00000220: aeab 253a e519 b0bb 53c9 153d 5af5 02bc
00000230: f8c0 40bd 6c4f 8b3d b28b 373d 2409 0cbd
00000240: f03d fdbc dbc8 713e a113 4ebd 22fa 673d
00000250: 76e8 423e 9ddc e3bd 754f bbbc 60ae 153e
00000260: 0527 963d b48f 4f3e 755c eb3c dc70 173d
00000270: 6ffd 973c a04a bbbd 514f f53b 8e2d 393d
00000280: fe57 2f3d 6f60 463e 6d93 443d b8b7 7cbc
00000290: 7d39 f2bc 4dd8 e9bd 5b2a 3c3d 8e59 7b3c
000002a0: 5fc2 16bd 85dd bcbd ffb9 f7bb 289a e63c
000002b0: 343a 483e faab 67be 87b8 a63c 73b1 90bc
000002c0: 3e95 fbbc 9d3a 15bd 952d afbb f8db 37bc
000002d0: 9203 95bb 6ed2 e53c 1226 043c c279 73bb
000002e0: dfa2 973c 6561 edbc 2ecd 23bd 8534 073e
000002f0: 3dd8 00be bdab 4e3e a5bb 153d 0c80 e63d
00000300: dcec c8bd 41f4 863e a9d2 3c3c fbcf a13d
00000310: 2f1f 11be 9b22 6dbd 4806 653c 79bc 5b3d
00000320: 95d6 22bc f494 7e3e 23b0 a8bb d00e c5bd
00000330: 1c2b e13d 9d3a 1d3e c8d4 763c a262 92bd
00000340: c249 1a3d e74f 483e fcf2 0f3d fc24 cfbd
00000350: 9d48 883e e496 e53e 2c3c 2ebd e26f 2bbe
00000360: afd7 963d 1302 9f3c 4812 d1bc e620 023d
00000370: 5782 b83d dbf9 883c e504 0abd 7d2d 4a3d
00000380: 3e8e 72bc 3d47 f1bc 31e1 553d 9535 073e
00000390: f9bf 713c aa86 543e f4a6 e33b 2ae6 7c3d
000003a0: c26e 6f3d 2c63 56bd fee9 60bd 266c 823e
000003b0: 8e12 bbbd e617 2a3e b135 2c3d 0e19 6a3e
000003c0: 930d c03b a284 b9bc fe86 cc3c 67fa 543d
000003d0: 6fc5 84be 3f0f 0cbe d7a1 8ebc 9ab3 dc3d
000003e0: 4a3c 383d 2772 babb cba6 b53c ca4d 7c3d
000003f0: 5060 ac3d 7134 83bd ea32 9dbc 8026 aa3d

fc1.bias f4 [256]
-0.038215857 0.09405987 -0.10161786 0.12782243 -0.06669691 -0.19452007 -0.30908066 -0.0033152872
-0.21507446 -0.1681564 0.100936286 0.060177192 0.09868041 -0.18118107 -0.06896664 0.19118457
0.051355872 -0.0199066 -0.049846914 -0.09163806 0.12489891 -0.17791544 -0.004167199 -0.11453003
0.02505347 -0.15466993 0.13552941 0.0097502405 -0.11628566 -0.14589079 -0.06821726 -0.04626976
-0.034320973 0.0780093 -0.062077697 0.046667688 -0.10492218 0.20666216 -0.33672437 0.06217415
-0.105321474 -0.12652981 0.021571042 -0.17886752 -0.03744441 -0.10575377 -0.0980054 -0.22156057
0.20894107 0.1285799 -0.14230049 0.2060288 -0.09422339 -0.16645338 0.09353025 -0.06990873
0.13488597 -0.067707054 -0.27921867 0.11306053 0.007912175 0.0065159686 -0.0480157 -0.13930123
0.07118721 0.028789783 -0.16674918 0.09860405 -0.2570397 -0.0016099507 -0.013545318 -0.18420208
-0.16958995 -0.09068803 -0.093320504 0.18837494 0.10169252 0.25473702 0.022738846 0.022834854
-0.016397776 -0.078451924 -0.24761479 -0.2313236 0.090916395 -0.19540064 -0.096690476 0.027588006
-0.18079552 0.080003254 -0.022991061 0.12817788 -0.086006016 0.16925061 -0.18921293 -0.21636193
0.15505022 -0.10739448 0.08977708 0.091046184 0.057301976 -0.058048192 0.01905378 0.0038656355
-0.10281341 0.17245923 0.12490626 0.009324247 0.07455498 0.04444496 -0.09213215 -0.15190001
-0.115730084 -0.22032763 -0.074310005 0.12282931 0.1958932 -0.19678845 -0.15120082 0.1578758
-0.06192085 -0.049712025 0.15353283 0.14414665 0.1195624 0.10818338 0.052619252 -0.1197019
0.11713203 -0.15853047 -0.15855297 0.034123942 -0.18191144 0.1268381 0.1527236 0.115833774
0.0553529 -0.039874602 0.038929887 0.12604469 0.018148117 -0.10844939 0.17180772 0.058614682
0.13442527 -0.2215695 0.035588264 -0.12191588 -0.001743457 0.12868749 0.046342455 0.16681291
0.10300919 -0.16998692 0.22301978 0.0022014522 0.2095945 0.027573625 0.038604766 0.15141311
-0.15964818 0.044499215 -0.0010168602 0.070815116 -0.02419578 0.1746987 -0.00954504 0.16039123
0.0789209 0.20127854 -0.033455823 -0.16035756 -0.13325721 -0.20571798 -0.17739032 -0.105819054
-0.032160986 0.18092276 -0.10781516 0.06821437 -0.059066292 0.16845788 0.16479208 0.077487655
0.12761098 -0.062562086 -0.14527547 -0.19892521 -0.04972824 0.16846213 0.13357735 0.09058492
-0.15621902 -0.09228475 0.20642789 -0.14607291 -0.15657715 0.13036615 0.1669182 0.055758268
-0.02452408 0.0040056617 0.020787194 -0.068768464 0.16682124 0.19529694 -0.119465165 0.15819174
-0.045466907 -0.13898136 0.09062763 -0.0073502567 0.16468127 0.038716517 -0.033478342 -0.16570686
0.13232712 0.15699145 0.0006902595 -0.024009371 0.04124187 -0.07756079 0.24258211 -0.008546359
-0.0016873823 -0.18075201 -0.018574968 -0.15980244 -0.06339334 -0.16140814 0.113377795 0.18386981
-0.09609608 -0.03829955 0.040502883 0.0069818883 -0.122927755 0.0665193 0.044332176 0.17954436
-0.13752672 -0.09358838 0.16805442 0.0120832715 -0.06053804 0.16039607 -0.048400898 -0.0955996
-0.08770491 -0.17660068 -0.0378448 -0.16969848 0.1811713 0.2197306 -0.16836368 0.10868229
00000000: 3b88 1cbd 76a2 c03d 061d d0bd e2e3 023e
00000010: 6498 88bd 4530 47be d23f 9ebe 4a45 59bb
00000020: 7b3c 5cbe 3131 2cbe afb7 ce3d 5c7c 763d
00000030: f418 ca3d 8887 39be 623e 8dbd e3c5 433e
00000040: 895a 523d 2a13 a3bc 472c 4cbd bcac bbbd
00000050: 00cb ff3d 772f 36be 008d 88bb b88e eabd
00000060: ef3c cd3c cb61 1ebe 39c8 0a3e 79bf 1f3c
00000070: 2d27 eebd 6564 15be 7eb5 8bbd 5c85 3dbd
00000080: 2694 0cbd 57c3 9f3d 2f45 7ebd 9e26 3f3d
00000090: 71e1 d6bd 3f9f 533e 2367 acbe 52aa 7e3d
000000a0: c9b2 d7bd 0891 01be c1b5 b03c 0c29 37be
000000b0: 4f5f 19bd 6f95 d8bd 0eb7 c8bd c6e0 62be
000000c0: a6f4 553e 73aa 033e 38b7 11be 37f9 523e
000000d0: 31f8 c0bd c172 2abe ca8c bf3d 4f2c 8fbd
000000e0: 8c1f 0a3e ffa9 8abd c0f5 8ebe 478c e73d
000000f0: 11a2 013c e883 d53b 1cac 44bd fba4 0ebe
00000100: 9aca 913d 8dd8 eb3c 4cc0 2abe ecf0 c93d
00000110: b59a 83be fb04 d3ba 2eed 5dbc 789f 3cbe
00000120: fda8 2dbe a5ba b9bd d21e bfbd 5ce5 403e
00000130: 2b44 d03d e46c 823e d146 ba3c 2910 bb3c
00000140: a154 86bc 67ab a0bd bb8e 7dbe 18e0 6cbe
00000150: 6032 ba3d 1b17 48be a805 c6bd 3e00 e23c
00000160: 7622 39be bfd8 a33d c057 bcbc 1041 033e
00000170: ec23 b0bd 0850 2d3e 09c1 41be fb8d 5dbe
00000180: 7cc5 1e3e a3f1 dbbd 0cdd b73d 6c76 ba3d
00000190: 7ab5 6a3d f1c3 6dbd ac16 9c3c 9a56 7d3b
000001a0: d68f d2bd 2799 303e dace ff3d bac4 183c
000001b0: 48b0 983d eb0b 363d c8af bcbd ad8b 1bbe
000001c0: e503 edbd 919d 61be d82f 98bd ef8d fb3d
000001d0: 3a98 483e e982 49be 63d4 1abe 32aa 213e
000001e0: b8a0 7dbd d69e 4bbd b637 1d3e 2e9b 133e
000001f0: 22dd f43d 3f8f dd3d 4987 573d 4526 f5bd
00000200: ebe2 ef3d d055 22be b65b 22be 8cc5 0b3d
00000210: fe46 3abe d9e1 013e 9363 1c3e 423a ed3d
00000220: b9b9 623d 8d53 23bd f274 1f3d dc11 013e
00000230: 5cab 943c b71a debd 5dee 2f3e f315 703d
00000240: c7a6 093e 1de3 62be 00c5 113d 08af f9bd
00000250: b684 e4ba a7c6 033e 96d1 3d3d 01d1 2a3e
00000260: 7bf6 d23d 0d11 2ebe 4c5f 643e 3d46 103b
00000270: f19f 563e 15e2 e13c 0820 1e3d 0a0c 1b3e
00000280: d07a 23be cf44 363d 2b48 85ba 8407 913d
00000290: 3a36 c6bc 37e4 323e cd62 1cbc 993d 243e
000002a0: 48a1 a13d f61b 4e3e f908 09bd c634 24be
000002b0: 9474 08be bca7 52be cfa5 35be a9b7 d8bd
000002c0: 3dbb 03bd d143 393e 32ce dcbd fab3 8b3d
000002d0: 7fef 71bd 3980 2c3e 41bf 283e d9b1 9e3d
000002e0: 74ac 023e 8d20 80bd 18c3 14be 0db3 4bbe
000002f0: d7af 4bbd 5681 2c3e 80c8 083e 9684 b93d
00000300: e1f7 1fbe c9ff bcbd d561 533e 2394 15be
00000310: c355 20be b47e 053e 9bec 2a3e c862 643d
00000320: b9e6 c8bc ed41 833b e849 aa3c 7bd6 8cbd
00000330: 30d3 2a3e ecfb 473e 27aa f4bd 04fd 213e
00000340: 823b 3abd 2151 0ebe fb9a b93d 6cda f0bb
00000350: 35a2 283e 3695 1e3d 9620 09bd 0faf 29be
00000360: c380 073e 5ec2 203e 88f2 343a 4daf c4bc
00000370: 3ced 283d 31d8 9ebd 7267 783e 0706 0cbc
00000380: 282b ddba 0e17 39be 882a 98bc 40a3 23be
00000390: 5ed4 81bd 2d48 25be 9e32 e83d 5e48 3c3e
000003a0: 06ce c4bd fddf 1cbd 5ae6 253d 53c8 e43b
000003b0: 8cc1 fbbd 453b 883d a895 353d 7ada 373e
000003c0: ced3 0cbe 44ab bfbd 7516 2c3e eaf8 453c
000003d0: bcf6 77bd de3e 243e 0540 46bd b9c9 c3bd
000003e0: a29e b3bd cfd6 34be 2603 1bbd 70c5 2dbe
000003f0: f884 393e 0f01 613e 8767 2cbe d294 de3d

fc2.weight f4 [128, 256]
-0.15648629 -0.094659716 0.11668499 -0.06782041 0.051650632 -0.017944505 0.016824305 0.08641072
-0.07634404 0.18189421 -0.13912082 0.018430633 -0.05765996 0.14087878 0.026449814 0.16656052
0.08867768 -0.06343918 -0.06407715 -0.17766629 -0.066196606 0.15818726 0.16078468 -0.21291178
0.052922025 -0.15527251 -0.052066438 -0.04845621 0.013706687 -0.0067077223 -0.06466312 -0.21188162
0.0905618 -0.09440605 0.094679795 0.07858371 0.14230956 -0.22956753 0.09869953 0.095397554
0.014226576 0.037501086 -0.19171081 -0.06144396 0.108551346 0.108101696 0.037883762 -0.06713618
-0.015837092 -0.13346383 -0.22216375 0.08090478 -0.14522739 -0.1635946 -0.056042794 0.112244226
-0.04767344 -0.04334795 -0.013142145 -0.08970786 0.047488187 0.060909834 -0.11547671 -0.03938898
-0.12838453 -0.12308966 0.22833923 0.013652525 0.07869076 -0.08222754 -0.07912451 -0.07987702
-0.089488715 0.040355403 0.14378928 0.056827147 -0.065715715 0.00807166 0.006566106 -0.21123166
0.016755683 -0.10630532 0.097458884 0.075950004 0.02487609 -0.021477522 -0.033522993 0.041988075
-0.030328443 0.024243046 0.13549244 -0.066061415 -0.2052231 0.14481293 0.01737949 0.015016264
0.09465406 0.048395064 0.0027105696 -0.08923066 -0.030650506 0.056720022 -0.010979004 0.23414454
0.17939329 0.096730545 0.3000628 0.17652744 -0.030931743 -0.050597776 -0.0028871703 0.010105192
0.00062633073 0.062401485 -0.06521497 -0.11405528 0.0361721 0.102795124 -0.047717948 0.045411967
0.037236612 -0.09119817 -0.050923783 0.019028775 -0.1953221 0.14117129 0.073654294 0.020533338
-0.012721782 0.006059864 -0.0509018 0.059952077 0.1633712 -0.023811232 0.042155664 -0.010351097
-0.10864122 0.10338297 -0.026033828 0.063654445 -0.020397134 0.0102896 0.11457989 -0.1735265
-0.07713864 0.21418233 -0.07326341 0.024919799 -0.07610882 0.5167629 -0.06389108 -0.23646106
0.19146216 0.33140358 0.029929653 0.11251749 -0.092435844 -0.1629039 -0.1022409 0.069817364
0.010612182 -0.37954676 0.112682045 -0.08819766 0.08469904 -0.27673468 -0.20397973 -0.026493954
0.15338829 -0.028488204 0.011088805 -0.043310437 -0.16732553 -0.10100772 -0.0032816234 -0.12110305
0.034156248 0.33376002 0.03938149 0.2237028 -0.020055639 -0.12877873 -0.03403179 -0.018361764
0.112018004 -0.12055382 0.04080026 -0.06927387 0.17896527 0.020155173 -0.049758714 -0.07499177
0.080020234 -0.06460263 -0.21140674 -0.013516658 -0.038435575 0.08370753 -0.028320488 -0.2710493
-0.04059416 -0.031163853 -0.004301471 -0.01636736 0.16765735 0.070616655 0.20576891 0.1425341
-0.06669584 0.06109434 0.061363034 0.108715065 -0.016039489 0.09089544 -0.05824901 -0.1158482
-0.026885835 -0.074085884 0.20577736 -0.17203388 0.065629214 0.27042904 0.17730278 -0.019211039
0.60175073 -0.06837659 -0.061513998 0.17870907 0.004667867 -0.03776317 0.12244538 -0.074808754
-0.13079199 0.07711407 -0.22371481 0.24205106 0.30966905 0.010267401 -0.05637129 0.31434566
-0.016856212 -0.0711323 -0.0067593637 -0.20411098 0.32326478 0.03503937 0.11767366 -0.07275153
0.060484163 0.1261 0.10981624 0.04846104 -0.10107869 -0.09033051 -0.052584786 -0.13433523
00000000: f13d 20be f4dc c1bd 8af8 ee3d 6de5 8abd
00000010: 9d8f 533d 5b00 93bc 20d3 893c 1bf8 b03d
00000020: 445a 9cbd 7a42 3a3e b075 0ebe d7fb 963c
00000030: da2c 6cbd 8742 103e 48ad d83c d78e 2a3e
00000040: a59c b53d 67ec 81bd e13a 83bd 27ee 35be
00000050: 1692 87bd d7fb 213e bda4 243e 8c05 5abe
00000060: c4c4 583d c2ff 1ebe 9e43 55bd 057a 46bd
00000070: 0392 603c 74cc dbbb 196e 84bd 7ff7 58be
00000080: 7778 b93d f657 c1bd 7be7 c13d 7ff0 a03d
00000090: 99b9 113e c013 6bbe fb22 ca3d cb5f c33d
000000a0: 9616 693c bd9a 193d d74f 44be a9ac 7bbd
000000b0: 2b50 de3d 6c64 dd3d 012c 1b3d b27e 89bd
000000c0: cabc 81bc beaa 08be e57e 63be 68b1 a53d
000000d0: 7db6 14be 5885 27be 218d 65bd 4de0 e53d
000000e0: 3a45 43bd 9f8d 31bd 2752 57bc c1b8 b7bd
000000f0: f982 423d 977c 793d 0e7f ecbd 5756 21bd
00000100: 3c77 03be 6f16 fcbd c2d1 693e d7ae 5f3c
00000110: 9f28 a13d ea66 a8bd 080c a2bd 9096 a3bd
00000120: dc45 b7bd b54b 253d 7f3d 133e 95c3 683d
00000130: f695 86bd ff3e 043c 7d28 d73b 1d4d 58be
00000140: 3743 893c 9bb6 d9bd 8698 c73d ad8b 9b3d
00000150: f1c8 cb3c a1f1 afbc 684f 09bd b0fb 2b3d
00000160: 5b73 f8bc 5a99 c63c 88be 0a3e 354b 87bd
00000170: 0126 52be d749 143e 6f5f 8e3c c706 763c
00000180: fdd9 c13d e739 463d d0a3 313b 90be b6bd
00000190: c516 fbbc 4153 683d 48e1 33bc 96c3 6f3e
000001a0: e0b2 373e aa1a c63d d5a1 993e 9cc3 343e
000001b0: 9164 fdbc 9d3f 4fbd ae36 3dbb 3f90 253c
000001c0: 5830 243a b398 7f3d 6d8f 85bd d195 e9bd
000001d0: 3229 143d 4086 d23d e573 43bd e601 3a3d
000001e0: 6b85 183d 1bc6 babd 7595 50bd 3ce2 9b3c
000001f0: 8402 48be 358f 103e 10d8 963d 8835 a83c
00000200: 056f 50bc d391 c63b 687e 50bd 4f90 753d
00000210: c84a 273e c60f c3bc 6bab 2c3d a697 29bc
00000220: 4a7f debd 73ba d33d e544 d5bc 435d 823d
00000230: e417 a7bc b695 283c dda8 ea3d eeb0 31be
00000240: ddfa 9dbd 9d52 5b3e 200b 96bd 9b24 cc3c
00000250: f1de 9bbd 934a 043f 54d9 82bd d922 72be
00000260: a80e 443e bbad a93e 082f f53c 926f e63d
00000270: 014f bdbd 48d0 26be ad63 d1bd 68fc 8e3d
00000280: b8de 2d3c f453 c2be d8c5 e63d faa0 b4bd
00000290: b176 ad3d 2bb0 8dbe 10e0 50be d909 d9bc
000002a0: d211 1d3e 1860 e9bc d2ad 353c 4966 31bd
000002b0: 6257 2bbe 23dd cebd 8110 57bb e004 f8bd
000002c0: 6ce7 0b3d 98e2 aa3e 7c4e 213d 5912 653e
000002d0: b94b a4bc 92de 03be eb64 0bbd 696b 96bc
000002e0: b269 e53d ece4 f6bd 2c1e 273d 75df 8dbd
000002f0: ac42 373e 761c a53c cbcf 4bbd 4995 99bd
00000300: a6e1 a33d 624e 84bd 027b 58be f974 5dbc
00000310: 9f6e 1dbd da6e ab3d 5e00 e8bc f9c6 8abe
00000320: 1046 26bd 564b ffbc 5bf3 8cbb d714 86bc
00000330: 5eae 2b3e 779f 903d 16b5 523e 76f4 113e
00000340: d497 88bd 0f3e 7a3d ce57 7b3d 01a6 de3d
00000350: 3f65 83bc 6327 ba3d 8496 6ebd d241 edbd
00000360: af3f dcbc 57ba 97bd 4db7 523e a629 30be
00000370: 9c68 863d ad75 8a3e dc8e 353e 7860 9dbc
00000380: 560c 1a3f 0709 8cbd 1af6 7bbd 83ff 363e
00000390: e8f4 983b 8ead 1abd a5c4 fa3d 5535 99bd
000003a0: 56ee 05be fbed 9d3d 7f15 65be 3cdc 773e
000003b0: f18c 9e3e 9a38 283c 95e5 66bd eaf1 a03e
000003c0: 0a16 8abc d0ad 91bd a77d ddbb 7802 51be
000003d0: f682 a53e 7185 0f3d e3fe f03d c1fe 94bd
000003e0: 3ebe 773d 5c20 013e 56e7 e03d 157f 463d
000003f0: 5802 cfbd 34ff b8bd 2563 57bd 2d8f 09be

fc2.bias f4 [128]
0.04201616 -0.031085305 -0.052731603 0.011047351 0.048578262 0.057776533 0.039318636 -0.07064621
0.0033220605 0.010545327 0.047113504 0.056718964 -0.048136886 0.041586075 -0.063190244 0.048749667
-0.031925287 0.12080714 -0.07798843 -0.0703188 -0.12533599 -0.015044141 0.04177102 -0.11804869
0.017677814 -0.012342316 -0.07512626 0.00051561306 0.0034103978 -0.03930121 -0.027116576 -0.033777505
-0.017091537 -0.033681884 -0.05780269 0.016070733 0.022163667 0.055084996 -0.037167124 -0.03105046
-0.0046786685 0.029675687 -0.03501044 0.11691697 -0.0038241292 0.018986471 -0.11143512 0.09359895
-0.02610405 -0.07244073 -0.022482054 -0.014971181 0.0021573356 0.06148432 -0.018813973 0.1021217
-0.013653647 0.035918992 -0.11998109 0.08512229 -0.0077076117 -0.015775263 -0.059326652 0.04193604
0.07670506 0.09329869 0.006416263 -0.015937008 -0.016153414 0.05924138 0.10112462 -0.07404442
0.042127524 0.011990093 0.18880302 -0.026797077 -0.05022267 0.102117345 -0.0762423 -0.027464075
-0.055914115 -0.06576183 0.016714854 -0.011987806 0.06518726 -0.06681153 -0.031128453 -0.035635028
0.057683077 -0.06673015 0.067509465 0.07261836 0.0009817601 -0.00559231 0.055802617 0.02615597
0.06888837 0.032113217 0.039164923 -0.00041472926 0.09323386 0.04076822 -0.03576534 0.024302306
-0.072259575 -0.051232766 -0.06296622 0.01585983 -0.04370274 0.069120176 -0.094767496 -0.034995824
-0.006702904 -0.017210161 -0.04507782 0.009008486 0.012730352 0.023626102 0.0044880672 0.03155446
0.04686941 0.05787222 -0.04961888 -0.036778044 -0.04255993 0.0057716635 0.12806249 -0.017391207
00000000: 2319 2c3d 9ca6 febc 18fd 57bd f3ff 343c
00000010: 00fa 463d 16a7 6c3d 940c 213d f6ae 90bd
00000020: edb6 593b 4fc6 2c3c 17fa 403d 2552 683d
00000030: 2f2b 45bd 2956 2a3d e369 81bd bbad 473d
00000040: 17c4 02bd bc69 f73d 66b8 9fbd 4e03 90bd
00000050: 1458 00be b37b 76bc 1718 2b3d 83c3 f1bd
00000060: 10d1 903c 6d37 4abc ccdb 99bd 352a 073a
00000070: fb80 5f3b 4efa 20bd 9523 debc 485a 0abd
00000080: 8d03 8cbc 04f6 09bd 83c2 6cbd c5a6 833c
00000090: 9490 b53c cea0 613d 8e3c 18bd 895d febc
000000a0: 844f 99bb 6d1a f33c 1b67 0fbd 2a72 ef3d
000000b0: 3e9e 7abb 8489 9b3c 1938 e4bd ceb0 bf3d
000000c0: 29d8 d5bc ce5b 94bd 492c b8bc af49 75bc
000000d0: 1662 0d3b fbd6 7b3d c31f 9abc 2f25 d13d
000000e0: 8cb3 5fbc cb1f 133d a5b8 f5bd 9854 ae3d
000000f0: 2290 fcbb 203b 81bc 8100 73bd 20c5 2b3d
00000100: 8b17 9d3d 6213 bf3d 843f d23b 548e 82bc
00000110: 2a54 84bc 17a7 723d 6d1a cf3d 9aa4 97bd
00000120: e98d 2c3d 1872 443c 9455 413e 8b85 dbbc
00000130: 49b6 4dbd e622 d13d ec24 9cbd 57fc e0bc
00000140: 3306 65bd 23ae 86bd 97ed 883c 8168 44bc
00000150: e680 853d 7cd4 88bd 1901 ffbc 09f6 11bd
00000160: 1745 6c3d d1a9 88bd 6742 8a3d efb8 943d
00000170: 67ae 803a b23f b7bb 4991 643d 0b45 d63c
00000180: 5915 8d3d 2689 033d 666b 203d 0570 d9b9
00000190: 65f1 be3d 94fc 263d ad7e 12bd a115 c73c
000001a0: d4fc 93bd 73d9 51bd 6ff4 80bd 79ec 813c
000001b0: a501 33bd e18e 8d3d 7615 c2bd c857 0fbd
000001c0: 09a4 dbbb 53fc 8cbc 85a3 38bd 5498 133c
000001d0: f792 503c 878b c13c a310 933b 403f 013d
000001e0: 23fa 3f3d 6c0b 6d3d 2b3d 4bbd 93a4 16bd
000001f0: 5253 2ebd 3920 bd3b d022 033e 0178 8ebc

fc3.weight f4 [2, 128]
-0.44999233 0.29892978 -0.34557992 0.056851014 -0.09606872 -0.14248174 0.02370056 -0.4073203
0.21276702 -0.04529117 -0.0574213 -0.1826262 0.099435925 0.31488127 -0.21892251 0.045614168
0.018431276 0.4469944 0.2566386 0.16111371 0.46958247 0.4431208 -0.006392307 -0.7891651
-0.02042552 -0.10635075 -0.025132459 0.08615373 0.021078594 0.12185399 0.044952314 0.11626458
0.03760103 0.1342478 -0.3575173 -0.19563569 0.5970026 0.03725729 -0.17751521 -0.10864716
0.108396165 0.16315849 0.0047575473 0.3591313 0.054928355 -0.011805341 -0.27569857 0.06214037
-0.09757743 -0.7360344 0.02112376 0.28458244 0.023945248 0.31003156 0.21158056 -0.047233883
0.056793787 0.21822807 -0.6135593 0.053319104 -1.5128298 0.012880882 0.10648417 0.01306445
0.06212459 0.32166538 -0.07625213 -0.12400365 0.013243155 0.21169387 0.18424286 -0.8427758
0.24110709 -0.5979289 0.001057387 0.26752567 -0.13405289 0.013262921 0.0011668436 -0.14907238
-0.052547473 -0.012628089 -0.007816256 0.030734105 0.40307048 -0.020677993 0.0015910576 -0.025352437
-0.023346214 -0.036717094 0.27462694 -0.09174827 -0.0046973806 0.13467936 -0.00043602695 0.20301603
0.55532885 0.032806084 0.27640715 0.16614161 0.5739451 0.004729661 -0.050579295 0.2872626
0.32209405 0.32305115 -0.16989312 -0.5265007 0.32275334 0.026244447 -0.17183545 -0.11766597
-0.03878508 -0.26108757 -0.36900252 -0.4402627 0.017338604 -0.03574141 -0.0893079 0.02265495
-0.04812597 0.123812966 -0.28797007 -0.016632555 0.26679054 -0.026250983 0.0022303252 0.027466767
-0.19378999 -0.045159105 -0.068271525 -0.5198701 0.004682436 -0.18920232 -0.101512715 -0.10730607
0.12658086 0.08051334 0.11764558 -0.13759798 0.032246117 0.021309752 -0.058900602 0.0014491366
0.015318859 0.067025 -0.009880282 0.5999009 -0.06434537 -0.020414444 -0.16047199 -0.054832567
-0.10392116 0.095483415 -0.10981403 0.36099935 -0.050621286 0.037359543 0.19403996 0.29189643
-0.07856905 0.060896352 -0.332616 0.16161534 0.022882653 -0.2716191 0.03577338 0.1084424
-0.22455342 0.040759422 -0.034837656 -0.2093661 0.20293054 -0.51179874 0.28867382 -0.03167539
0.033000093 -0.80256623 -0.054824 0.025435414 0.020280594 -0.10230142 0.08816032 0.07653484
-0.44852543 -0.23282108 0.06474997 0.057407122 -0.5003325 0.007857356 0.047737807 0.005221807
0.023725625 0.042991225 0.12903598 -0.049266584 0.02207028 0.19998066 0.082081966 -0.20658089
-0.33473375 -0.423283 -1.0755379 0.07122036 0.030296529 0.04101628 -0.09331235 -0.22241384
0.08913402 -0.2515052 0.15668526 -0.004834935 0.073129326 -0.18243146 -0.03688282 -0.65265447
0.09624771 0.3467557 -0.17717879 0.061394356 0.00014398848 0.10710656 -0.5990651 -0.3894423
0.017904956 -0.027836075 0.06332184 -0.15896298 -0.019470118 -0.17296776 -0.019432066 0.074526735
-0.041172862 -0.07659753 0.008431928 0.16093087 -0.03289533 -0.09676053 -0.1700823 0.014465256
0.19059913 -0.0038673733 0.09059543 0.053589955 -0.80078727 -0.877206 0.14643791 0.05677809
-0.17440714 -0.02625827 -0.24501716 -0.16096899 -0.038875803 -0.26917955 -0.61784697 -0.3627966
00000000: 6565 e6be 530d 993e daef b0be 9cdc 683d
00000010: adbf c4bd bce6 11be ad27 c23c 498c d0be
00000020: 99df 593e 3c83 39bd 9932 6bbd 5d02 3bbe
00000030: 10a5 cb3d 1e38 a13e 392d 60be ecd5 3a3d
00000040: 30fd 963c 73dc e43e 2266 833e fefa 243e
00000050: 1d6d f03e bbe0 e23e 8f76 d1bb b906 4abf
00000060: 6c53 a7bc 6cce d9bd 96e2 cdbc 5e71 b03d
00000070: 04ad ac3c 968e f93d eb1f 383d 201c ee3d
00000080: 8a03 1a3d 4178 093e 820c b7be b954 48be
00000090: 2ad5 183f 1a9b 183d 8cc6 35be 6782 debd
000000a0: cffe dd3d 0513 273e 33e5 9b3b 0fe0 b73e
000000b0: 8efc 603d 306b 41bc 5d28 8dbe e786 7e3d
000000c0: add6 c7bd c06c 3cbf bc0b ad3c cab4 913e
000000d0: d328 c43c 75bc 9e3e 93a8 583e 5178 41bd
000000e0: 9aa0 683d 2e77 5f3e 3912 1dbf 2265 5a3d
000000f0: 68a4 c1bf 560a 533c 5f14 da3d 460c 563c
00000100: 5b76 7e3d 53b1 a43e 142a 9cbd a0f5 fdbd
00000110: d1f9 583c 47c6 583e 29aa 3c3e 28c0 57bf
00000120: c7e4 763e de11 19bf 0598 8a3a 20f9 883e
00000130: 2945 09be b94c 593c c6f0 983a 6ea6 18be
00000140: 053c 57bd 0be6 4ebc c10f 00bc 17c6 fb3c
00000150: 415f ce3e e564 a9bc 098b d03a eaaf cfbc
00000160: 8f40 bfbc aa64 16bd e79b 8c3e 84e6 bbbd
00000170: 7cec 99bb 63e9 093e 8c9a e4b9 6fe3 4f3e
00000180: 082a 0e3f ac5f 063d 3d85 8d3e 0721 2a3e
00000190: 11ee 123f 46fb 9a3b 3c2c 4fbd 1514 933e
000001a0: 83e9 a43e f666 a53e 76f8 2dbe c0c8 06bf
000001b0: ed3f a53e 98fe d63c a2f5 2fbe dbfa f0bd
000001c0: 1bdd 1ebd 45ad 85be e6ed bcbe 1d6a e1be
000001d0: b009 8e3c 9665 12bd 0fe7 b6bd e096 b93c
000001e0: bd1f 45bd a791 fd3d d070 93be ff40 88bc
000001f0: c598 883e 4d0c d7bc a62a 123b fc01 e13c
00000200: e270 46be c1f8 38bd f1d1 8bbd 3516 05bf
00000210: 1f6f 993b 41be 41be e6e5 cfbd 49c3 dbbd
00000220: 6a9e 013e 2ee4 a43d 2af0 f03d 7ce6 0cbe
00000230: 8114 043d ca91 ae3c c241 71bd f5f0 bd3a
00000240: f4fb 7a3c 6744 893d e8e0 21bc 1b93 193f
00000250: 81c7 83bd 313c a7bc c552 24be 1d98 60bd
00000260: 9ed4 d4bd cf8c c33d 2ee6 e0bd e8d4 b83e
00000270: 4458 4fbd 5206 193d 69b2 463e 7373 953e
00000280: cfe8 a0bd 746e 793d a54c aabe 7e7e 253e
00000290: 6774 bb3c a911 8bbe 1c87 123d 0d17 de3d
000002a0: 55f1 65be 5af3 263d eeb1 0ebd 1164 56be
000002b0: 06cd 4f3e 3e05 03bf 0ecd 933e 0ebe 01bd
000002c0: 1b2b 073d fb74 4dbf 218f 60bd ee5d d03c
000002d0: 7d23 a63c 6883 d1bd 668d b43d 4cbe 9c3d
000002e0: 20a5 e5be a668 6ebe a29b 843d bb23 6b3d
000002f0: ca15 00bf 24bc 003c b888 433d b11b ab3b
00000300: 3e5c c23c 9117 303d 0222 043e c2cb 49bd
00000310: bbcc b43c bbc7 4c3e 971a a83d f189 53be
00000320: 3962 abbe 8db8 d8be 3aab 89bf fbdb 913d
00000330: 6d30 f83c b000 283d 8c1a bfbd 74c0 63be
00000340: e68b b63d 4ac5 80be 1a72 203e 606e 9ebb
00000350: d4c4 953d 50cf 3abe 7112 17bd 5d14 27bf
00000360: 851d c53d f789 b13e 5b6e 35be a678 7b3d
00000370: 9dfb 1639 af5a db3d 555c 19bf fb64 c7be
00000380: 6aad 923c 7b08 e4bc e1ae 813d 31c7 22be
00000390: cc7f 9fbc 761e 31be ff2f 9fbc 79a1 983d
000003a0: e0a4 28bd 2adf 9cbd 1226 0a3c 10cb 243e
000003b0: 41bd 06bd 622a c6bd 0e2a 2ebe aeff 6c3c
000003c0: 6b2c 433e c273 7dbb 198a b93d 2481 5b3d
000003d0: 6500 4dbf 9390 60bf d2f3 153e 2490 683d
000003e0: c997 32be 951b d7bc c7e5 7abe 0ed5 24be
000003f0: 3c3c 1fbd e7d1 89be 382b 1ebf 7ac0 b9be

fc3.bias f4 [2]
0.036543667 0.052877694
00000000: d0ae 153d 4896 583d
