agent2_checkpoint_critic.pth (torch_old, 185326 bytes, 5 tensors)

fcs1.weight f4 [256, 48]
00000000: 4398 35bd 85bb f93f 1fbd 58be ac8b ba3e
00000010: b7e3 7a3e 5026 41bf a046 69be 1c1e ca3e
00000020: df16 f53c 83dd 0440 74f5 c63c f020 de3d
00000030: 18c9 703e 4c90 1ebf 05dc 053e 01a9 923d
00000040: e3cb 063f 51db 0240 81eb 113e 82e5 af3e
00000050: 4ea9 063e 8756 1dbf b8b3 3a3e c505 823e
00000060: 2fe6 423f febf 2140 b794 3cbe 2213 df3e
00000070: 4c66 a1be 347b 51bf 6cd6 61be fb6a f03e
00000080: 1948 ca3e ae75 3440 59a4 eb3c 5187 4f3e
00000090: 6876 91be 33e9 17bf 3e9b fe3b ee48 843e
000000a0: af70 103e 35a1 3740 cf25 39bd b778 90be
000000b0: aa7c 32be cc9f 1dbf 30de 1cbd 9241 52be
000000c0: 2bc3 773f a904 903f 2745 c7bd 6d6b 0ebf
000000d0: 8bd9 003d da10 9bbe f98a 04be cdb5 f7be
000000e0: fb3c 9f3f cf2d 953f 4363 e83c 2ac6 36bf
000000f0: 5b15 533e 7985 be3e 1ebd a73c 9a2f 32bf
00000100: a59f 853f dd9d 923f 983f 39bc f3e9 babe
00000110: c7e6 dc3e 42f0 d83e 0263 f5bc 704a e5be
00000120: 9d16 a83e 586c 903e f094 89bd f82a 72bf
00000130: 6fcf e6bd e212 8fbe 4fd2 e8bd afdb 74bf
00000140: f4ef 393f acd4 323e d33a 1cbe 1b61 213e
00000150: a448 88be 36df d33e bb1c e8bd 21be f03d
00000160: 4722 8f3f 984e c63e d7eb 00bc b956 8e3e
00000170: 06c1 d9be 5735 f93e 3336 eabc 2bc1 9a3e
00000180: b6f8 88bd 8453 0d3f 13b1 85b9 fe4f 1fbe
00000190: 8e11 693f 7dfe 87bf 9134 6bbc a538 7abd
000001a0: 4216 473d 2601 1a3f 02c8 61bd 75ae 993d
000001b0: afbf b53d 80d8 3dbe 6918 343d 06ee 5b3d
000001c0: 1fa5 223e 4914 fd3e 0887 3cbd 17d0 be3c
000001d0: 3b1d a3bf 3a9e b33f 9b56 353d 170e 0c3e
000001e0: cd74 473c 5e61 1b3d 256d 24bd 03b8 453d
000001f0: 85cc 67bf c92a 86bf 7a31 273d 0c38 f0bc
00000200: f1a3 7abc 5b8b bfbc 4782 133c 9aae 25bc
00000210: 73b4 82bd 2a4b 52be 1fd4 9fbb 306b e6ba
00000220: 8627 a53c 7e26 a9bd de81 04bc 8327 dabc
00000230: 88be a53f 3854 b83f c13b 513c 9802 1c3d
00000240: e128 983d f5d9 45be 4576 3ebd b011 8d3c
00000250: 29e7 0ebd d0a3 eb3e 8936 abbd 2596 273d
00000260: f30e 243e de13 38be 7880 a6bc 7a0a 6f3e
00000270: 0911 ab3e 2f78 943c 073a 1f3d 3978 f63d
00000280: a722 d43e adba 08be 12f6 ff3c cc33 463e
00000290: 83f8 133f c54a e0be eb6c f4bc 05bf 743e
000002a0: 380d 963f 17e5 4d3f 1683 30be d791 053f
000002b0: b649 0b3b be03 bd3e a03d 0cbe c924 123f
000002c0: 2689 6a3f 2f7b 5f3f 1a90 dabd cdf0 1a3f
000002d0: ae41 aabe b6b4 573d d888 5abe 6814 103f
000002e0: 97f9 813f 32d2 833f af0b 8dbc 2776 343f
000002f0: 8e7f 0cbf 08ed eabe e93b f6bc 65fa 2f3f
00000300: f4ab 0e3e ec41 eb3d 5e29 f33c 9e99 5bbd
00000310: 8845 b23c 4fbd 06be 37a4 32bd 3dd6 a0bd
00000320: aeca 463e 22c0 e73d 5675 e2bc 4e29 8bbc
00000330: 3d2a 843c 2209 15bd e112 73bc 7854 933d
00000340: e7fc 3e3e 5791 213e 96b5 a0bc 67f1 623c
00000350: 735a fabc 81d7 89bd f10d c93c 6040 a83c
00000360: fd07 0a3e ca93 703d 90f9 42bc 587a b03c
00000370: aa20 2ebd e15c 89bd e130 03bc b27d 133d
00000380: 91c5 f73d 69f2 fa3d 6aec 46bd f663 4dbd
00000390: b70a 8d3d 0b95 f8bd 1873 353d c550 453d
000003a0: 3583 093e e051 353e 74bf 68bd 45c9 e9ba
000003b0: 1eca 573d 650e 09be f72a 433b 0663 75bd
000003c0: ad40 183e e735 1b40 2b0c 5abd c273 393f
000003d0: d5e9 9f3e 082e 87bd be92 25bd f55c 463f
000003e0: 0368 c23e 7dc3 1b40 2e74 453a 901d fe3e
000003f0: c1b6 09be 92a8 803d bb96 843c 6918 073f
-0.04433466 1.9510351 -0.21165894 0.36434686 0.24500929 -0.75449085 -0.22780848 0.39476097
0.029918132 2.07602 0.024286963 0.10846126 0.23514211 -0.6193893 0.13072212 0.07161141
0.52654856 2.044636 0.14249994 0.34354788 0.13150522 -0.61460155 0.1823262 0.25395027
0.7613248 2.5273433 -0.18416105 0.43569285 -0.3152336 -0.8182862 -0.22054452 0.4695662
0.3950813 2.8196826 0.02876489 0.20266463 -0.2841065 -0.5934021 0.007769971 0.2583689
0.14105485 2.8692143 -0.045202073 -0.28217098 -0.17430368 -0.61571956 -0.038297832 -0.20532826
0.9678218 1.1251422 -0.09729987 -0.5563267 0.031457465 -0.30286294 -0.12943639 -0.4838089
1.2440485 1.1654605 0.028367644 -0.71396124 0.20613615 0.37211207 0.02047592 -0.69603884
1.0439345 1.1454426 -0.011306666 -0.36506614 0.4314482 0.42370802 -0.029954437 -0.44783354
0.32829753 0.2820766 -0.06717861 -0.94596815 -0.112700336 -0.27944094 -0.11368238 -0.9564771
0.72631764 0.1746394 -0.15256815 0.15759699 -0.2661792 0.41381234 -0.11333605 0.11755014
1.1182336 0.38731837 -0.007868729 0.2780054 -0.42530078 0.48673508 -0.028590297 0.302255
-0.06688063 0.5520556 -0.00025499667 -0.15557858 0.9104241 -1.0624539 -0.0143557945 -0.061089177
0.04860521 0.60158 -0.055122383 0.07503978 0.08874451 -0.1853962 0.04396859 0.053693794
0.15883301 0.4942954 -0.046027213 0.023292584 -1.2743295 1.4032662 0.044272047 0.1367725
0.012173844 0.037934653 -0.04014315 0.04827119 -0.9054645 -1.0481807 0.04081867 -0.0293236
-0.015297876 -0.02338188 0.0090032285 -0.010112429 -0.06382074 -0.20536485 -0.0048775817 -0.0017579552
0.020160448 -0.08259295 -0.008087603 -0.026630169 1.294877 1.4400702 0.012770594 0.03808841
0.07429672 -0.19321425 -0.04649951 0.017220348 -0.03488842 0.46023417 -0.08360011 0.040914673
0.16021328 -0.17976329 -0.02032493 0.2334384 0.33411434 0.018123714 0.0388737 0.120346494
0.41432688 -0.13352461 0.031245265 0.19355696 0.57801074 -0.43807045 -0.029837092 0.23900993
1.1722784 0.8042769 -0.17237505 0.5217566 0.0021253652 0.36916918 -0.13695383 0.5708738
0.9161552 0.8729734 -0.106720164 0.6052368 -0.33253235 0.052662574 -0.21341264 0.5628114
1.0154294 1.0298522 -0.017217485 0.70492786 -0.54882133 -0.45883965 -0.030057864 0.68741447
0.13932782 0.11487183 0.029682811 -0.053613298 0.02176167 -0.13158153 -0.04361364 -0.07853363
0.19413254 0.11315943 -0.02764384 -0.016987469 0.016133422 -0.036385663 -0.014836044 0.071938455
0.18651162 0.15778099 -0.019617837 0.0138515 -0.030560708 -0.06730557 0.02454278 0.020538509
0.1347961 0.058734693 -0.011900321 0.021542713 -0.04251162 -0.06707168 -0.008007259 0.036008544
0.1209823 0.12253267 -0.048565306 -0.05014416 0.06886809 -0.12137803 0.044299215 0.04817273
0.13428958 0.17707014 -0.05682321 -0.0017836472 0.05268299 -0.13384397 0.0029780248 -0.05990889
0.14868422 2.425165 -0.05323426 0.7244226 0.31233087 -0.06600577 -0.040423147 0.7748559
0.3796998 2.4338067 0.0007532266 0.4963193 -0.13448621 0.06282152 0.016185155 0.5277162

fcs1.bias f4 [256]
00000000: 425d 91bf 4c04 8ebf 76db a5bf f743 4dbf
00000010: 881e 2fbe 8015 91bf 5bee 2fbf 5436 79bf
00000020: f2bc 67bf a5e7 8bbf 98ed 48bf af5c a6be
00000030: 5463 d63e a078 1ebf ef50 1abf b3c5 4ebf
00000040: 28d8 c5be ad69 33bf 33a6 94bc 4d9a 1bbf
00000050: 54c7 f9be 6852 febe 9da4 e43e 20af 18bf
00000060: 9f04 32bf 2573 89bf 3d56 c1bd ead0 08be
00000070: 84cc 67bf 716a a2bf 8d6f 5ebd db6f b83d
00000080: c67f 0abf 09df eebd 154b b4be 545a aebe
00000090: 72cd 58bf 96cd 71be 9008 72bd b064 90bf
000000a0: df10 11bf acaf 3d3d 343b 65bf f9f6 87bf
000000b0: c735 e4bd 61a0 a1be 9bdf 85bf 2ee8 2cbf
000000c0: a14d 27bf c7c5 2cbf 9f9f a9bf 5536 e6be
000000d0: 749f 1ebf db98 3dbf a04a 1cbf 6772 22be
000000e0: 6447 2bbf 33e0 0dbf a9d3 80bf b70e 2dbf
000000f0: 62da 62bf 7db4 57bf 5e47 c3be b137 b3bf
00000100: 304b 36be df61 c0be 61a6 9fbe 1f70 04bf
00000110: c45a 11bf 4352 53bf e9f6 0cbf 5301 3cbf
00000120: 05ba dcbe 3c71 2abf 9366 6dbe 1e19 ebbe
00000130: 5301 4bbf 350d 4abf 5f42 87bf 4c9e 89be
00000140: b301 39bf 09f6 dbbe 6e83 06bf bfc8 0dbf
00000150: c464 dfbe c361 a2bf 73cf bebe 05da 04bf
00000160: 2929 20bf 07bf d3be 06dd 13bf 6c9c 66bf
00000170: 4b08 e0be f2e4 c8be 76e5 f13d 33c2 9ebf
00000180: 324b a8bd ee3e 1abf af04 98bf cb30 8a3d
00000190: 6f2c b3be 3776 6dbf 5fb3 b8bf 2035 3d3e
000001a0: 6271 e3bd 5b65 bbbf 6b24 bdbf 82d1 eebe
000001b0: 5520 5dbf 6113 19bf 2cb5 cbbe 5a7e 78bf
000001c0: 1ace 9f3e b841 45bf ed48 b6bf 9cd9 6ebf
000001d0: c4f6 64bf 7784 1ebf 35e9 13bf 8f1e 37bf
000001e0: 2341 59bf 9488 a0bf f131 3fbf 24b6 63bf
000001f0: 5707 80be 2285 13bf 6573 87bf 4b46 90bf
00000200: 305d 5abf a6ff 7ebf 9925 6cbf ef1a 9ebf
00000210: 88ef 1cbf 9e49 93be 5ab6 94bf d623 6bbf
00000220: 627e 8abf d01a 53bf 8d9f fdbd 00c1 94bf
00000230: 4af6 29bf 9c76 1bbf e9e8 5bbf 2d1e d1be
00000240: e746 2bbf 4912 febe 2a8f e1be d361 153e
00000250: 547a 08be 8b92 21bf 9b3d 3cbf cbdb e73d
00000260: 9d94 a7be d2ca 12bf 3f38 61bf 191c a53d
00000270: 2eff 72bf 52e8 e3bd d44b 89bd 180a 1abf
00000280: b3c4 16bf e111 64bf 6f90 8fbf 9e35 e7bd
00000290: 5553 b7be 35f0 51bf 5a22 86bf 290e 2abf
000002a0: 11ce 91bf 1c7b 84bf 0e6d 55be 843d 6cbe
000002b0: ff15 4d3b 3b54 37bf f678 42bf dfef 3ebd
000002c0: 3b65 14bf 73ae 23bf ac50 82bf 51eb fdbc
000002d0: eca6 923d 5b5f 87be 5a3e 13bf 2e4c 86bf
000002e0: 9bf1 d8be 53ce 1abf e837 13bf 8600 b7bd
000002f0: 5caf 7cbf 13a7 22bd 4744 863e 8b3a 17be
00000300: ff20 07bf 6ebb 3abf 078f c33e 9370 8ebf
00000310: 8f4b 17bf d4d5 c8be ba28 b2bf e8da 24bf
00000320: 0ced dcbe 8871 933c 5660 eebe ff15 84bf
00000330: 8041 9cbf c132 43bf 9829 07bf 642c 6fbf
00000340: 6d2c b3be 29f9 65bf 0de4 82bf 4297 4fbf
00000350: 3c80 bcbe d025 babf 92dc 62bf 9d63 24bf
00000360: cdcb 28bf 059e 3abf 3db2 a3bf d8e8 05bf
00000370: 5e52 67bd c5b3 26bf 4a64 29bf 2a27 26bf
00000380: f265 883c d462 8dbf 7152 01bf b117 43bf
00000390: 17cb b4be 61c2 a4bf cc22 fdbe e365 113d
000003a0: 6e66 80bf 52d3 75bf 102b 92bf 01a6 55be
000003b0: f4f0 83bf 16de 0bbe 7ede 1cbe aaa5 63bf
000003c0: 402e b3bf ff51 5bbf a0ba 28bf 855a 2dbf
000003d0: 316c 21be 754c 15be 3c97 3bbf 7f4e 23bf
000003e0: 60c9 80bd 0724 45bf 8a1c 5abf 6e63 9abf
000003f0: aa27 55bf 9af6 25be 9798 30bf 44cd 6abf
-1.1356585 -1.1095061 -1.2957599 -0.8018183 -0.1710149 -1.1334686 -0.68723077 -0.97348523
-0.9052268 -1.0930067 -0.7848754 -0.32492587 0.41872656 -0.6190281 -0.60279745 -0.80770415
-0.38641477 -0.70083123 -0.018145656 -0.6078232 -0.48784888 -0.49672246 0.4465684 -0.5964222
-0.695383 -1.0738264 -0.09440277 -0.13360944 -0.9054644 -1.2688733 -0.054305602 0.0900571
-0.54101217 -0.11663634 -0.35213533 -0.3405329 -0.84688485 -0.23613581 -0.059090197 -1.1280727
-0.5666637 0.046310112 -0.8954346 -1.0622245 -0.1114307 -0.31567672 -1.0458864 -0.6754178
-0.6535283 -0.67489284 -1.3251837 -0.44963327 -0.61962056 -0.74061364 -0.6105137 -0.15863954
-0.6690581 -0.55420226 -1.0064594 -0.6760058 -0.88614476 -0.8425978 -0.38140386 -1.4001371
-0.1780212 -0.3757467 -0.31181625 -0.51733583 -0.5677912 -0.82547396 -0.55064255 -0.7343952
-0.43110672 -0.6657903 -0.2318366 -0.459176 -0.79298896 -0.789264 -1.056713 -0.26878583
-0.7226822 -0.42961147 -0.52544296 -0.5538444 -0.43631566 -1.2686085 -0.37267646 -0.5189517
-0.62562805 -0.4135668 -0.5775913 -0.9008243 -0.43756327 -0.3923717 0.11811344 -1.2403015
-0.08217467 -0.60252273 -1.1876429 0.06747588 -0.34994838 -0.92758507 -1.442974 0.18477297
-0.111056104 -1.4640306 -1.4776739 -0.46644217 -0.8637746 -0.59795195 -0.3978666 -0.970678
0.3121193 -0.77053404 -1.4241005 -0.93300796 -0.89439034 -0.61920875 -0.5777772 -0.71531004
-0.84865016 -1.254168 -0.7468558 -0.889498 -0.250056 -0.5762502 -1.0582091 -1.1271452
-0.8529844 -0.9960884 -0.9224487 -1.235197 -0.61302996 -0.28767103 -1.1618149 -0.91851556
-1.0819819 -0.8246279 -0.123839475 -1.1621399 -0.6639143 -0.6072786 -0.8590227 -0.40843335
-0.66905063 -0.49623325 -0.44054538 0.14588098 -0.13327914 -0.6311423 -0.735315 0.11321219
-0.3273057 -0.5734073 -0.8797645 0.08062 -0.94920623 -0.11128296 -0.06703916 -0.6017165
-0.5889389 -0.8908978 -1.1215953 -0.112895235 -0.35805765 -0.8200715 -1.0479233 -0.66427857
-1.1391011 -1.035007 -0.20842382 -0.23070341 0.0031293628 -0.716129 -0.7596582 -0.046615478
-0.57966965 -0.63938063 -1.0180869 -0.030995997 0.07160744 -0.26439938 -0.57517016 -1.0491998
-0.4237183 -0.60471076 -0.5750718 -0.08935647 -0.9870508 -0.039710116 0.26223966 -0.14768426
-0.52784723 -0.72942245 0.3819506 -1.1128105 -0.5909967 -0.39225638 -1.3918679 -0.64396524
-0.43149602 0.017998472 -0.46557873 -1.0319213 -1.2207489 -0.7624932 -0.5279784 -0.9342711
-0.34994832 -0.89833313 -1.0225846 -0.81090176 -0.36816585 -1.454279 -0.88617814 -0.642145
-0.65935975 -0.7289737 -1.2788769 -0.52308416 -0.056475036 -0.65118057 -0.66168654 -0.6490351
0.016650174 -1.1045785 -0.5051642 -0.76208025 -0.35311195 -1.287182 -0.4944061 0.035497557
-1.0031259 -0.96025574 -1.1419392 -0.20864107 -1.0307908 -0.13658938 -0.15319249 -0.8892466
-1.3998489 -0.8567199 -0.6590977 -0.67716247 -0.15763928 -0.14579947 -0.7327764 -0.6379165
-0.06288409 -0.770081 -0.851998 -1.2061594 -0.8326365 -0.16207352 -0.68982834 -0.9171946

fc2.weight f4 [128, 260]
00000000: b4af 2dbd 6636 d63b f92b 42be 89ed 8abd
00000010: bcaf dabc f1c9 3bbe 3363 28bd e414 bcbd
00000020: 57a5 6ebd aa76 03be cf1f b5bd 92d4 0d3e
00000030: 390b 673c 793a 9f3c 0de3 90bd 2645 c63c
00000040: 4698 11bd c74d 073d 4d54 19bf c1eb 4bbd
00000050: c642 83bc f5ff 24bd dadf 8bbe 0e2e 86bc
00000060: d0ee 023d 90f6 57be b6c7 51bd 0823 5dbd
00000070: fa89 7cbd 8b19 1abe e3fb 13be 695b d2bc
00000080: 8feb 103d 347e b8bb f464 c73c a140 65bf
00000090: 6fb4 6abd 24ba 87b9 e2dd 2ebf 5dec f53c
000000a0: 1257 35be c8a6 82be c274 85bd fc0d a5bd
000000b0: 8259 25be 59e9 92bd e9b2 8e3d 2198 a33c
000000c0: d0e1 38bd c56f 02be 3846 6c3d 0b41 98bc
000000d0: f80e a539 926c 143b 4ccc aa3b 601d 293d
000000e0: c8df 78be c4bc 88bd 64c8 b3bd 295e 61bd
000000f0: eee1 54bc 7978 fcbb 3c93 90bd 8e8c 2e3d
00000100: a546 2b3d 3ce6 63be 4e7b a13d 93d0 b0bd
00000110: 1321 b9bd 7535 cb3b 19d4 2abe 9b3e 98bd
00000120: 9bbc 673d cc3c 983b c4f3 e5bd b55c 92be
00000130: 75a4 0dbe 10ca b53b c482 5dbc da34 a83c
00000140: 9124 b2bb 2a7d 0ebe 2136 39bd 7322 7abd
00000150: 1c20 a9bd ab9c 4abe 4ca8 50bd e0f3 a7bd
00000160: 4f2c 833d 238b b1bd c4ad 473c d78c acbe
00000170: 8e33 85bd d352 e33d 1065 ddbd ebcc 0cbd
00000180: e146 12be 1d0e 51be d3fc 8a3d f6ad 17be
00000190: 8325 3bbe d845 2bbc 0a4c f8bd ce26 ecbe
000001a0: 8d5a b63c ef83 a1bd 2a4f 19bf db94 a1be
000001b0: 5305 24bd 0d39 88bd b4e7 15bc 888f 39bc
000001c0: 945a 66bd d917 09be 1151 26b9 1128 04be
000001d0: 20e1 b13c 507f 50bd 8d67 45bc ecf6 5d3e
000001e0: fec1 603d 8b56 a9bd c221 ad3c 500b 24be
000001f0: 4041 d9bd afe6 05be 72d8 2cbc 48d8 06be
00000200: f2b5 ba3c 835f 49be cca1 49bd 1860 c8be
00000210: a734 4c3d 384e 283c 884e 2dbe 4471 f3bc
00000220: b901 08be 5c41 553b 8091 fd3c 60ee 95bb
00000230: 05d1 103b 8026 673d 5df0 773b b1a5 63be
00000240: 1f84 663e 859e 993d c0c7 8abe 7f91 0dbe
00000250: c8ae 4fbe 6ea8 a6be 30a9 26be 26be 41bd
00000260: b990 81bd 913c 39bd cee8 bd3b b102 93be
00000270: a979 b23d 4c97 9cbc 2053 a9bb 2bae 38be
00000280: 526d 45bd f931 0ebc ade1 873d 13b5 57bb
00000290: 026b 803d 97a7 d33d c3d3 61bd de58 7c3d
000002a0: 20f7 963c 0fc4 843d 16bf 59bd a1ba b23c
000002b0: e8e4 1cbd 9dca 673d 0eb4 1ebe 8d01 e03d
000002c0: 92eb fcbd 704f 133c 2c4c adbe b16a a6bd
000002d0: 4623 c9be 08d7 2fbe 0902 51be 4267 a9bb
000002e0: 2fb8 163d e330 a6be 0b33 b7bc d081 82bd
000002f0: 8523 703c e7c9 813d a6f7 63be a0c7 b6bc
00000300: f490 e3bd ed29 3ebd f6c2 6ebe ce53 1cbe
00000310: bc34 97bd 0b7c dbbd 0c3c 15bd 733a 9cbe
00000320: 1b5a bfbd 47cc 0dbe c135 a8bd 1fb8 f43b
00000330: daec 263d e154 cebd d1eb 0ebe b848 853c
00000340: 3a00 73bc d786 a6bb 2f5b 00bd 88d1 d9bd
00000350: b0e8 9ebd 36a3 26bd 0062 a3bd 7aac 52be
00000360: 72d8 aabd 3c6b 7dbd ea37 bfbb 81d3 d0bd
00000370: 2f8e f2bc e25c a7bc 7026 fbbc d4f6 56be
00000380: c5f9 e4bd 082f e6bc 4485 72bd ed5e 8cbd
00000390: 71cb 9dbd ce1f 9fbc 201f c5bd 2c51 863d
000003a0: d2a5 d5ba 0403 80bd a218 ed3c 38e6 98bd
000003b0: 7a06 a3be 4c7e cd3a 9d42 2fbe 4339 a1bd
000003c0: f9b8 fdbc 9405 82bd 53da efbd 9003 fabd
000003d0: 4bab a5bd 3fa7 b73b 77ec 3ebe a3d8 6cbd
000003e0: 19cc 3ebf fc5d 29be e3d5 d93b 00d1 21be
000003f0: b8da 8d3b a39a 02be 118b 92bb 08f5 fcbc
-0.04240389 0.0065372465 -0.18962087 -0.067835875 -0.026695125 -0.18338753 -0.04111023 -0.09183672
-0.05826315 -0.12838235 -0.08843958 0.1385062 0.014101797 0.019437062 -0.070745565 0.024202894
-0.03554561 0.03303316 -0.5989426 -0.04978538 -0.016023051 -0.040283162 -0.27319223 -0.016379382
0.03196603 -0.2109015 -0.05121585 -0.053988487 -0.061655022 -0.15048806 -0.14451556 -0.025678353
0.035380896 -0.005630279 0.02434013 -0.8955174 -0.05730098 -0.00025887892 -0.68307316 0.030019933
-0.17708996 -0.2551787 -0.065164104 -0.08059308 -0.16147426 -0.07173414 0.06967718 0.019970002
-0.045137227 -0.12737949 0.057684153 -0.018585702 0.00031482405 0.002264772 0.0052123424 0.04128778
-0.24304116 -0.06676629 -0.08778456 -0.05502144 -0.012993319 -0.007704791 -0.07059333 0.042614512
0.04181542 -0.22255796 0.07884847 -0.086335324 -0.090395115 0.006201441 -0.16682471 -0.07433816
0.056576353 0.0046459194 -0.11228135 -0.28586355 -0.13832267 0.0055477694 -0.0135199465 0.020533014
-0.005436488 -0.13914934 -0.045217637 -0.06106801 -0.082580775 -0.19786327 -0.05094175 -0.08200812
0.064049356 -0.08669116 0.012187425 -0.33701202 -0.06503974 0.11099782 -0.10810292 -0.034375113
-0.1428485 -0.2041554 0.06786504 -0.14812455 -0.18276028 -0.010453664 -0.12123878 -0.46123356
0.022259975 -0.078864925 -0.5988642 -0.3155888 -0.04004414 -0.066515066 -0.009149481 -0.011325724
-0.056238726 -0.13388003 -0.00015861193 -0.12905909 0.021713793 -0.050902665 -0.012048614 0.21676224
0.054872505 -0.0826846 0.021134261 -0.1601994 -0.106081486 -0.1307628 -0.010549651 -0.13168442
0.022791836 -0.19665341 -0.049226567 -0.39135814 0.0498549 0.010272555 -0.16924489 -0.029717095
-0.13281907 0.0032540178 0.030953169 -0.0045755357 0.0022097242 0.0564332 0.0037832477 -0.22231175
0.22511338 0.07500938 -0.27105522 -0.13825034 -0.20281518 -0.32550377 -0.16275477 -0.04730048
-0.06326432 -0.045223776 0.0057955747 -0.2871299 0.08714611 -0.019115113 -0.00516738 -0.1803519
-0.04819996 -0.008678907 0.06634841 -0.0032914325 0.0627041 0.103346996 -0.055133592 0.061608188
0.018428385 0.06482708 -0.05316075 0.021817507 -0.03830424 0.05658971 -0.15498373 0.10937796
-0.12349619 0.008991107 -0.33847177 -0.081258185 -0.39284724 -0.17171872 -0.20410933 -0.00516978
0.036796745 -0.32459173 -0.022363206 -0.06372416 0.014656906 0.06337338 -0.22262439 -0.022311985
-0.11111632 -0.046426702 -0.23316559 -0.15266344 -0.07383105 -0.10717019 -0.03643422 -0.30513343
-0.09343358 -0.13847457 -0.08213378 0.007468238 0.040753223 -0.10074783 -0.13957144 0.016270027
-0.014831597 -0.005081992 -0.03133696 -0.10635668 -0.07759225 -0.040682994 -0.079776764 -0.20573607
-0.08342065 -0.061869845 -0.005835523 -0.10196591 -0.029608814 -0.020430032 -0.030657977 -0.20992595
-0.11180452 -0.028098598 -0.059209123 -0.06854043 -0.07704819 -0.019424345 -0.09625077 0.06558451
-0.0016300029 -0.06250575 0.02894241 -0.07465786 -0.3184088 0.0015677898 -0.17115255 -0.0787225
-0.03097199 -0.0634872 -0.11711564 -0.12207711 -0.08089312 0.005604654 -0.18644892 -0.05782379
-0.7453018 -0.16539758 0.0066478117 -0.15802383 0.004329052 -0.12754302 -0.0044721444 -0.030878559

fc2.bias f4 [128]
00000000: 05d2 34be d899 17be 919a c7bd 3d91 a7bd
00000010: 9772 033d 1e52 31be 671c 07be 3d4b 2bbc
00000020: 2afb 83bd 685b 83be f143 45be 0601 5bbe
00000030: 371f 06be e64d ecbd fb25 27be afbc 18be
00000040: 9a02 0c40 e441 21be ae86 20be cf88 f1bd
00000050: 5f2b aabd 908a 1abe bb19 45be 2e84 fcbd
00000060: 998a 06be 4eed 3abe 3f75 2fbe 20cf 34be
00000070: 51aa 23be baf6 9fbd 7823 bebd d5a2 1ebe
00000080: 9ee1 10be 2cb2 343e 3708 33bd 254a 9abe
00000090: f546 c8bd 6f11 17be cf17 f6bd a73a 05be
000000a0: 28fd 35be 90ca 34be 0788 a8bd 1bf1 d83d
000000b0: 4124 7fbe 2d10 42be f28f 49be 8130 babd
000000c0: 95ee bdbd b458 41be 3c24 12bf 5efc 01be
000000d0: 42b2 e1bd 7f07 c8bd 2afd ddbd e0d5 24be
000000e0: 9aa0 b3bd 2a92 2abe 8317 debd d88c 0fbe
000000f0: aefb 83bd 45f9 d7bd 588f eebd 4a16 efbd
00000100: e92d 11bf be12 43be 29d6 d2be 63a1 abbe
00000110: 8be4 da3d 5ee7 f3bd e0a0 93bf 6b30 2fbe
00000120: 8ade 86bd c3c1 dbbe e0a6 01be 18ed 32bf
00000130: 8037 debd 9cfc 04be 356a 57bd 4d47 00be
00000140: 6ed5 52be 1946 19be 8bbb 0ebe 59cb 2cbd
00000150: 3106 0c3c ed12 34bf 6bf9 adbd 809e bfbd
00000160: b254 37be a8e0 183f 3503 94bd 775c a13e
00000170: 5355 16be 736c 21be a792 b43f f502 abbe
00000180: 9924 61bd 0eeb 58bd a390 d1bd e06e 0c3e
00000190: 4ca9 57be 16b7 083e 2b3b 34be 8bdc 25be
000001a0: 6323 16be 2912 26be f0ea 3fbe a0cf 43be
000001b0: a994 4d3f dcdd 15be 0df0 2c3f 2cfa 12be
000001c0: c50d e2bd a50e 47be 4215 e3bd 5ad9 95be
000001d0: ca01 76bf f1e9 6ebe 6fcd b6be 3ac8 dfbd
000001e0: ca48 a6bd bef1 32be 32ca 5d3c 9084 01be
000001f0: 49f2 b8bd 126d 28be 0eec 83be 703e 20be
-0.17658241 -0.1480478 -0.09746278 -0.08181999 0.032091703 -0.17316481 -0.13194428 -0.01045495
-0.0644439 -0.25655675 -0.19264199 -0.21387109 -0.13097845 -0.115382954 -0.16323082 -0.14915727
2.1876588 -0.15747792 -0.15676376 -0.11793672 -0.08309054 -0.1509192 -0.19248097 -0.12329899
-0.13138808 -0.18254587 -0.1713457 -0.17657137 -0.1598294 -0.07810731 -0.09284109 -0.15491803
-0.14148566 0.17646092 -0.043709006 -0.30134693 -0.09779159 -0.14752744 -0.1201626 -0.13010655
-0.17772353 -0.17655396 -0.0822907 0.10592862 -0.24916174 -0.18951483 -0.19683817 -0.09091283
-0.092740215 -0.18881494 -0.5708654 -0.12693927 -0.11020328 -0.09767055 -0.10839303 -0.16097212
-0.08770867 -0.1665732 -0.10844328 -0.14018571 -0.064444885 -0.10545591 -0.116484344 -0.11674173
-0.5671068 -0.19050118 -0.41179016 -0.33521566 0.10688122 -0.11909364 -1.153347 -0.17108314
-0.06585415 -0.42921266 -0.12661314 -0.69893026 -0.108504295 -0.12986988 -0.05259152 -0.12527199
-0.2058923 -0.14968146 -0.1393873 -0.042186115 0.008546398 -0.7034138 -0.08494838 -0.09356403
-0.17903402 0.597178 -0.07227174 0.31515858 -0.14680986 -0.15764026 1.4107255 -0.33400694
-0.054966543 -0.05295854 -0.102326654 0.1371417 -0.21060675 0.13351092 -0.17600696 -0.16197412
-0.14661936 -0.16217865 -0.18741965 -0.19122171 0.8030496 -0.14635414 0.6755379 -0.14353245
-0.110377826 -0.1943918 -0.11088039 -0.2926739 -0.9609648 -0.23331429 -0.35703608 -0.10926862
-0.08119352 -0.1747503 0.013536977 -0.12648225 -0.09030587 -0.16447857 -0.25766033 -0.15648818

fc3.weight f4 [1, 128]
00000000: a6ce a73b bab5 eebc 3509 a73b ceb1 56bc
00000010: 8257 de3c fbfa 99bc 7a97 ddbc b8a1 38bc
00000020: 552c bb3c 03d2 6abc df42 adbc bc7d 49bc
00000030: 1795 71bc bd76 bc3c 3ab9 9b3c 9445 b1bb
00000040: aa4f c63c 6472 7fbc c00c 4cbc 1774 09bb
00000050: 5820 043c c7c4 3639 ba83 14bc 0b55 7cbc
00000060: 72b1 40bb 4f40 c1bc 1e3e 61bc b4af 6d3c
00000070: 2b7e bdbc 7b0a 603c 98f8 ecbc ab03 c5bc
00000080: fa7d c6bc 12db 79bd e0a5 e63c a7c9 c23c
00000090: fe7b 1b3a 540e 6fbc 4d8a cabb 76db 8c3c
000000a0: f139 05bb 79de 1cbc dcb1 f73c aa17 e93c
000000b0: 5ca1 803b 54aa d8bc c421 843a 434b 413c
000000c0: f8ad 1ebc b2fd 4fbc 52b0 05bd fb8d d83c
000000d0: cdf9 febb 356f aebc d85c 9abc 6087 6fbc
000000e0: 4785 c0bc 8fc5 fcbb 09f2 653c 9925 cdbb
000000f0: 97ad f1bc 5c67 aebd 272f 1e3c ed17 83bb
00000100: 9165 cabd 62bc 12bc b993 12bd d088 deba
00000110: 2695 65bc 02f3 a53c b43f acbc c8ab 103c
00000120: 8e65 c3bc 6eae 89bd 2add 863b e4f9 82bc
00000130: cce8 c1bb 094b 27bc 888d 953a b935 193c
00000140: 9871 92bb ca60 bb3c 7c80 22bc 16fe cabc
00000150: 430b b93c 47ba 65bc f871 bfbc a6d4 20ba
00000160: 5d28 8abc 8c0c 833d e1a0 b5bb a9aa 703c
00000170: 69f2 52bc 8b64 f93c 357e 983c d317 62bc
00000180: 76cd 323c ae58 e7bc 9ce3 c73c ca25 a73c
00000190: 9013 8e3c d558 a33c c350 a3bc 1c48 813c
000001a0: fcb2 4939 5296 47bc 3b68 213c c6a4 55bc
000001b0: c68c 273c a1c5 b1bc a5f8 03bd 3ab3 1e3c
000001c0: 648d 003c a22d 77bb f302 103c f902 98bc
000001d0: bb5a 10bd d135 2e3c ff24 733d 1ec0 0c3c
000001e0: 424c cf3c 6a2d fe3c 1b8b 32bc 8724 83bc
000001f0: c1e4 a8b9 4b24 533b 97be 5eba 6de3 49bc
0.00512107 -0.029139388 0.005097533 -0.013103915 0.027141336 -0.018796435 -0.027049769 -0.0112690255
0.022848288 -0.014332297 -0.02115005 -0.012298044 -0.014745018 0.023005838 0.019009221 -0.0054099057
0.024207909 -0.015591238 -0.012454212 -0.0020973736 0.008064352 0.00017430178 -0.009064609 -0.015401135
-0.002940264 -0.023590235 -0.01374772 0.014507223 -0.02313145 0.013674374 -0.028927132 -0.0240496
-0.024229992 -0.060999937 0.028155267 0.023777796 0.0005931257 -0.014590818 -0.0061810375 0.01719449
-0.0020328725 -0.009574526 0.030236177 0.028453667 0.0039254855 -0.026448406 0.0010080864 0.011797729
-0.009685032 -0.012694763 -0.032638855 0.026434889 -0.0077812434 -0.021293262 -0.0188431 -0.014619678
-0.023501052 -0.0077139805 0.014034756 -0.0062605855 -0.02950172 -0.08515808 0.009654797 -0.004000655
-0.098826535 -0.008956047 -0.03578541 -0.0016978029 -0.014012611 0.020257477 -0.02102647 0.008830018
-0.023852136 -0.06722723 0.0041157203 -0.015988298 -0.005917644 -0.010210761 0.0011409977 0.009351187
-0.004469108 0.022873301 -0.009918328 -0.02477936 0.022588378 -0.014021463 -0.023369774 -0.0006135203
-0.01686495 0.063988775 -0.00554286 0.014689126 -0.012875178 0.03044345 0.018614868 -0.013799625
0.0109132435 -0.028240528 0.024400525 0.020403761 0.017343313 0.01993982 -0.019935971 0.015781455
0.0001923553 -0.012181835 0.009851511 -0.013039773 0.010226434 -0.021700682 -0.032219548 0.009686286
0.00784621 -0.0037716408 0.008789766 -0.018556105 -0.035242777 0.010632948 0.059361454 0.008590726
0.025304917 0.031027514 -0.010897423 -0.016008629 -0.00032213892 0.0032217677 -0.0008497028 -0.012322289
